mukul2_model.pth (torch, 94606 bytes, 16 tensors)

layer1.weight f4 [128, 66]
-0.005659057 0.0631224 -0.011145347 0.051309742 0.071584664 0.0314649 -0.114395425 -0.025964247
0.071468346 0.11952889 -0.108348355 0.012001477 -0.020188332 0.047498025 -0.0119412895 -0.062217295
0.08181135 0.008657289 0.06202587 -0.11450734 0.11080098 0.08756982 -0.016305374 0.11198076
-0.10887647 -0.05828536 0.048391897 -0.08729292 0.0323864 -0.07301876 -0.0742567 0.11777841
-0.05976336 0.122093745 -0.10050447 0.0067300927 -0.007343329 0.044159066 0.05979933 -0.0022273632
-0.12242813 0.10777941 -0.017042095 -0.09742274 0.10444974 0.03297643 -0.06121429 -0.073182546
-0.058064483 0.009360135 -0.040248573 0.052099887 -0.010362626 0.057580587 0.06146291 0.10786608
0.08577544 0.10207973 0.034838352 0.08648035 0.109386735 -0.062049937 0.11189167 -0.02440349
-0.10079681 -0.023945868 -0.12229356 -0.038595192 0.068283714 0.063459896 0.11425608 -0.11402125
-0.118792646 -0.0002557609 -0.053780742 0.08759564 -0.070050314 -0.013116147 -0.10456166 0.0016175119
0.050029233 0.032213558 0.014028044 0.08322195 0.11735929 0.11212397 0.06801687 -0.12300404
0.0023161096 0.01017727 0.020342832 -0.009325676 0.007767618 -0.028667094 0.05609438 -0.11771431
0.107906446 0.046135243 0.099547096 -0.08058614 0.05466193 -0.06197769 0.022534916 -0.041969176
-0.097602926 0.08385516 0.02164317 -0.019634541 -0.07034677 -0.06587593 -0.03186105 0.09538221
-0.0824164 -0.04795444 -0.02539151 -0.051902805 0.049901623 -0.022602135 0.029917743 0.0935622
0.05779186 -0.11627375 -0.051120367 0.0153867705 -0.070841946 -0.12936647 0.047856778 -0.041071467
0.08903482 0.044521414 0.11928274 -0.021032557 -0.037037555 -0.07583991 0.023767648 -0.05161796
-0.028583335 0.025475424 0.11567223 0.014946863 -0.05146376 -0.015823787 -0.102557994 -0.025166381
0.021125088 0.048111618 0.031178804 0.06502552 -0.030554747 0.014980184 -0.015464299 0.066550545
-0.09653887 -0.09510213 -0.050962076 -0.017455878 0.0071479953 0.07195735 0.019604404 -0.064008415
-0.1168201 -0.0719258 0.06189889 -0.084210865 0.08310447 0.01650951 0.04627622 0.02876006
-0.08511584 0.06831946 0.09826955 0.010986337 -0.059279915 -0.09058875 -0.111707516 0.023836812
0.033546057 0.049383484 0.023843668 -0.11364258 0.071383245 5.4696022e-05 0.013160147 0.10438176
-0.03000081 -0.120226495 -0.04614115 -0.03830201 0.051867202 0.061065014 -0.105948456 -0.059753764
-0.046266086 0.0011727904 0.06545534 0.06098592 0.001989449 0.038315423 -0.0052781836 0.12035781
0.015036503 0.11422137 -0.063401885 0.020773852 0.01807119 0.049849458 -0.052556306 -0.07827195
0.056431502 0.01833138 0.036055733 0.022596177 0.12541203 -0.1178931 0.05634466 -0.034815297
-0.014020245 0.09699796 0.001569227 -0.000990601 0.03032888 0.12573023 -0.06498985 -0.10013448
-0.08212734 -0.079295844 -0.08855921 -0.0010304858 -0.013801188 -0.027654609 -0.024805317 -0.03357993
0.106796265 0.0005232162 0.1072439 0.009445061 -0.081531085 0.10884714 -0.03857504 -0.08814241
-0.012034724 -0.063524626 -0.042621356 -0.0870553 -0.006739952 -0.100006826 0.06706092 0.05232993
0.07467519 0.0645764 0.10270426 0.0053023384 -0.01393428 -0.054356433 0.08213497 -0.00061851187
00000000: 9c6f b9bb 5146 813d f99a 36bc 2a2a 523d
00000010: fb9a 923d 57e1 003d 2648 eabd f9b2 d4bc
00000020: ff5d 923d 90cb f43d bee5 ddbd d8a1 443c
00000030: 0062 a5bc 4a8d 423d 66a5 43bc 90d7 7ebd
00000040: b68c a73d 4dd7 0d3c d70e 7e3d d382 eabd
00000050: a0eb e23d ce57 b33d d992 85bc 2b56 e53d
00000060: a0fa debd a1bc 6ebd 9536 463d a1c6 b2bd
00000070: 9aa7 043d dc8a 95bd e613 98bd cf35 f13d
00000080: 6dca 74bd 490c fa3d 4ad5 cdbd 1c88 dc3b
00000090: 4fa0 f0bb 23e0 343d 24f0 743d f4f8 11bb
000000a0: 99bb fabd 74bb dc3d dd9b 8bbc 9385 c7bd
000000b0: bfe9 d53d 4b12 073d d6bb 7abd bbe0 95bd
000000c0: 06d5 6dbd 405b 193c b0db 24bd b166 553d
000000d0: 01c8 29bc 9fd9 6b3d 88c0 7b3d e4e8 dc3d
000000e0: 09ab af3d 2d0f d13d a9b2 0e3d 9c1c b13d
000000f0: 2706 e03d 1328 7ebd 7627 e53d d4e9 c7bc
00000100: 8f6e cebd 202a c4bc 0c75 fabd fe15 1ebd
00000110: 55d8 8b3d 43f7 813d 17ff e93d f983 e9bd
00000120: 8f49 f3bd a617 86b9 3249 5cbd 5865 b33d
00000130: 8a76 8fbd 1ce5 56bc 6c24 d6bd b102 d43a
00000140: 74eb 4c3d 5df2 033d e2d5 653c 4570 aa3d
00000150: 115a f03d 41a1 e53d 6e4c 8b3d 8be9 fbbd
00000160: dfc9 173b 90be 263c 03a6 a63c b8ca 18bc
00000170: 8187 fe3b 41d7 eabc 38c3 653d 3314 f1bd
00000180: 0efe dc3d 4ff8 3c3d 59df cb3d 590a a5bd
00000190: 30e5 5f3d 51dc 7dbd 259b b83c dfe7 2bbd
000001a0: 0be4 c7bd 41bc ab3d 044d b13c 9ed8 a0bc
000001b0: f811 90bd f6e9 86bd bb80 02bd c057 c33d
000001c0: eec9 a8bd e06b 44bd db01 d0bc 0998 54bd
000001d0: a565 4c3d 1d28 b9bc 0e16 f53c 8a9d bf3d
000001e0: 28b7 6c3d ef20 eebd 9763 51bd cb18 7c3c
000001f0: 9515 91bd a578 04be 7805 443d 8e3a 28bd
00000200: e357 b63d 165c 363d 824a f43d 784c acbc
00000210: b1b4 17bd f451 9bbd 5fb4 c23c 5b6d 53bd
00000220: 9927 eabc d6b1 d03c 90e5 ec3d b0e3 743c
00000230: aacb 52bd e3a0 81bc ed09 d2bd ba29 cebc
00000240: 850e ad3c b010 453d b16a ff3c 1a2c 853d
00000250: f34d fabc 726f 753c f95d 7dbc a74b 883d
00000260: 2cb6 c5bd e8c4 c2bd 9cbd 50bd a1ff 8ebc
00000270: bb39 ea3b 605e 933d 6a99 a03c d816 83bd
00000280: 603f efbd d54d 93bd b189 7d3d bf76 acbd
00000290: ad32 aa3d f43e 873c 228c 3d3d 389a eb3c
000002a0: 3751 aebd 13eb 8b3d 8c41 c93d 0a00 343c
000002b0: 7fcf 72bd 9886 b9bd e9c6 e4bd 6b45 c33c
000002c0: 9767 093d 5646 4a3d cc53 c33c 71bd e8bd
000002d0: 6131 923d 6869 6538 a89d 573c 1bc6 d53d
000002e0: 42c4 f5bc 4f39 f6bd 81fe 3cbd 92e2 1cbd
000002f0: b472 543d 4f1f 7a3d 81fb d8bd 5dc0 74bd
00000300: 8281 3dbd 51b8 993a 730d 863d 5fcc 793d
00000310: 6a61 023b a2f0 1c3d 9df4 acbb 287e f63d
00000320: aa5b 763c e5ec e93d d9d8 81bd ed2d aa3c
00000330: 080a 943c f22e 4c3d 4845 57bd 0b4d a0bd
00000340: b824 673d b12b 963c 2daf 133d 9e1b b93c
00000350: 036c 003e f071 f1bd a9c9 663d 7c9a 0ebd
00000360: 2bb5 65bc dea6 c63d 85ae cd3a 0ed7 81ba
00000370: 4574 f83c 6dbf 003e 6619 85bd 4e13 cdbd
00000380: 6132 a8bd dc65 a2bd 885e b5bd 5e11 87ba
00000390: 611e 62bc eb8b e2bc 8534 cbbc 1c8b 09bd
000003a0: 00b8 da3d 7228 093a b1a2 db3d 75bf 1a3c
000003b0: c5f9 a6bd 40eb de3d dc00 1ebd 0284 b4bd
000003c0: 4a2d 45bc 3319 82bd bb93 2ebd 0d4a b2bd
000003d0: d1da dcbb 61d0 ccbd 3c57 893d e957 563d
000003e0: 4eef 983d a240 843d 9c56 d23d 3dbf ad3b
000003f0: 9b4c 64bc daa4 5ebd 6136 a83d a123 22ba

layer1.bias f4 [128]
-0.10607627 -0.010431786 0.023305917 0.049620166 0.11924057 -0.11609313 0.029264478 -0.0060914257
-0.082138576 -0.09853636 0.008040112 -0.053266678 -0.039276935 0.029211292 0.12206283 -0.070832334
-0.031498533 0.0076570814 0.0174638 -0.047270946 -0.08818813 -0.100746 -0.03517228 0.029871857
-0.07644111 0.0019804565 -0.058386534 0.014847889 -0.01955368 0.09638581 -0.08776445 0.087892964
-0.043213002 -0.1004769 -0.088694 0.04781035 0.05001527 -0.07999173 0.025761303 -0.09303444
-0.042724222 0.028783178 -0.04115673 0.090890996 -0.024245435 0.052681193 0.10475894 0.05169286
-0.041530497 -0.099357456 -0.064915285 0.11206725 -0.08836772 -0.10039753 0.048558418 0.117761984
-0.025384687 0.05550571 -0.108027235 -0.04107177 0.029686913 0.0376038 -0.008306471 0.06749755
0.009762941 -0.08992603 -0.026109511 -0.052837934 0.05576341 0.053442005 -0.109511435 -0.10058532
0.0715956 0.06171611 -0.058288764 -0.09369409 -0.0160299 0.11450277 -0.02272495 0.05471641
0.045802083 0.11826179 0.017340692 0.00091946236 -0.011188278 0.026987024 0.032484543 -0.046505
0.011460345 0.1030578 0.089393795 -0.008210451 0.055500306 0.017414287 0.08214377 -0.05003547
0.04498249 -0.11046006 -0.11833547 -0.049821083 -0.030055014 0.073622964 -0.071527034 0.059012845
-0.0042128656 -0.0688635 -0.015448365 -0.09231359 0.1207763 -0.07402987 0.07953927 0.07360232
0.025578283 -0.027789257 0.09459252 0.050234992 -0.028099764 -0.033348877 0.024041846 0.031140676
-0.08362039 -0.0021522366 0.08946266 -0.09476078 -0.010522933 0.10227553 0.07440238 0.012957937
00000000: 843e d9bd 15ea 2abc 0dec be3c 843e 4b3d
00000010: 6634 f43d 3cc2 edbd 0fbc ef3c 959a c7bb
00000020: 4538 a8bd 6ecd c9bd adba 033c 292e 5abd
00000030: dae0 20bd 854c ef3c 14fc f93d 8b10 91bd
00000040: 9b04 01bd 41e8 fa3b 3e10 8f3c 2e9f 41bd
00000050: fa9b b4bd eb53 cebd cf10 10bd d3b5 f43c
00000060: 288d 9cbd 8cca 013b b826 6fbd 8f44 733c
00000070: 0a2f a0bc ec65 c53d d9bd b3bd 3a01 b43d
00000080: 1e00 31bd d5c6 cdbd 33a5 b5bd c9d4 433d
00000090: d0dc 4c3d b4d2 a3bd 5e09 d33c d788 bebd
000000a0: 98ff 2ebd b3ca eb3c f693 28bd 0f25 ba3d
000000b0: 5d9e c6bc 3cc8 573d db8b d63d e4bb 533d
000000c0: e21b 2abd ec7b cbbd 4ef2 84bd 8483 e53d
000000d0: 23fa b4bd 389d cdbd 31e5 463d 322d f13d
000000e0: 8cf3 cfbc f559 633d 623d ddbd df3a 28bd
000000f0: f831 f33c 7106 1a3d dd17 08bc 283c 8a3d
00000100: bef4 1f3c 232b b8bd 9de3 d5bc 976c 58bd
00000110: 2c68 643d 01e6 5a3d 8847 e0bd adff cdbd
00000120: b7a0 923d 08ca 7c3d 33c0 6ebd b0e2 bfbd
00000130: 2351 83bc 6e80 ea3d ad29 babc 501e 603d
00000140: f79a 3b3d 3d33 f23d 110e 8e3c 1308 713a
00000150: 0a4f 37bc e413 dd3c 830e 053d 077c 3ebd
00000160: 2cc4 3b3c f80f d33d 1814 b73d 2185 06bc
00000170: 4a54 633d 68a8 8e3c fe3a a83d fef1 4cbd
00000180: 8f3f 383d e238 e2bd de59 f2bd 3111 4cbd
00000190: ef35 f6bc a3c7 963d c47c 92bd 74b7 713d
000001a0: 140c 8abb 4f08 8dbd 241b 7dbc e80e bdbd
000001b0: 9159 f73d f99c 97bd 7ce5 a23d d0bc 963d
000001c0: 8c89 d13c 4ca6 e3bc b9b9 c13d 35c3 4d3d
000001d0: 7a31 e6bc d598 08bd 68f3 c43c bb1a ff3c
000001e0: 2b41 abbd 8a0c 0dbb 3338 b73d f111 c2bd
000001f0: 6168 2cbc d575 d13d 4660 983d 874d 543c

bn1.weight f4 [128]
0.99803936 0.99381304 0.99855995 0.99548894 1.0036931 0.9922651 0.9991395 1.0017017
1.0044883 1.0044862 1.006445 1.0026271 1.0072976 0.9971345 0.9974185 1.0006454
1.0044007 1.0031267 0.9932753 0.9971496 1.0053022 1.0037638 0.9999372 0.99864423
1.0007743 0.99529403 0.99933606 0.9993907 1.0033948 0.99912524 1.0050305 1.0029081
0.9971538 0.9921898 0.9949115 0.9981093 1.0019598 1.0034487 1.0008441 0.9967456
0.99273086 1.0007064 0.9998304 0.9973014 0.99795943 0.9977937 0.9934021 1.0049049
1.0046448 0.9992782 1.00318 0.9926639 1.0037066 1.0054723 1.001937 1.00293
1.0014066 1.0026478 1.0002999 1.0042765 0.9915172 0.9929718 0.9925676 1.004654
1.0047599 1.0071816 1.0050857 1.0002965 1.0002483 0.993045 0.9936465 0.9992843
0.997219 0.99898803 1.003614 1.0003614 0.99847686 1.0022111 1.0073683 1.0073287
1.0008848 0.9976281 1.0043889 0.99803764 1.0021492 0.9939602 0.99373984 0.99992913
0.9943169 0.99637717 1.0011561 0.9953046 0.9972676 0.99436563 0.9957204 1.0043782
1.0017359 1.0034542 0.99990857 1.000366 0.99809253 0.99565905 1.0007164 1.0010986
0.9943516 1.0027629 1.0005654 1.0002404 1.0008998 0.99590594 0.99891645 0.99954826
1.0000283 1.0025963 0.99955 1.0011218 0.9988332 0.9997162 0.99440384 1.0038997
1.0016036 0.995159 1.0024567 1.0058473 1.0084455 1.0005047 1.005206 1.0013226
00000000: 827f 7f3f 886a 7e3f a0a1 7f3f 5dd8 7e3f
00000010: 0479 803f 1605 7e3f 9bc7 7f3f c337 803f
00000020: 1393 803f 0193 803f 31d3 803f 1656 803f
00000030: 21ef 803f 3544 7f3f d256 7f3f 2615 803f
00000040: 3490 803f 7566 803f 4a47 7e3f 3245 7f3f
00000050: bead 803f 557b 803f e2fb 7f3f 26a7 7f3f
00000060: 5f19 803f 97cb 7e3f 7dd4 7f3f 12d8 7f3f
00000070: 3e6f 803f acc6 7f3f d7a4 803f 4b5f 803f
00000080: 7945 7f3f 2700 7e3f 85b2 7e3f 1784 7f3f
00000090: 3840 803f 0271 803f a91b 803f b82a 7f3f
000000a0: 9c23 7e3f 2617 803f e3f4 7f3f 254f 7f3f
000000b0: 457a 7f3f 686f 7f3f 9a4f 7e3f b9a0 803f
000000c0: 3398 803f b2d0 7f3f 3468 803f 391f 7e3f
000000d0: 7579 803f 51b3 803f 793f 803f 0360 803f
000000e0: 172e 803f c356 803f d409 803f 228c 803f
000000f0: 12d4 7d3f 6633 7e3f e918 7e3f 8198 803f
00000100: f99b 803f 54eb 803f a6a6 803f b709 803f
00000110: 2308 803f 3238 7e3f 9e5f 7e3f 19d1 7f3f
00000120: bf49 7f3f aebd 7f3f 6c76 803f d80b 803f
00000130: 2e9c 7f3f 7448 803f 72f1 803f 26f0 803f
00000140: fe1c 803f 8e64 7f3f d18f 803f 657f 7f3f
00000150: 6d46 803f 2d74 7e3f bc65 7e3f 5bfb 7f3f
00000160: 8d8b 7e3f 9312 7f3f e225 803f 48cc 7e3f
00000170: ee4c 7f3f bf8e 7e3f 88e7 7e3f 778f 803f
00000180: e238 803f 3071 803f 02fa 7f3f fe0b 803f
00000190: fe82 7f3f 83e3 7e3f 7a17 803f 0024 803f
000001a0: d48d 7e3f 895a 803f 8712 803f e107 803f
000001b0: 7c1d 803f b1f3 7e3f fdb8 7f3f 65e2 7f3f
000001c0: ed00 803f 1355 803f 82e2 7f3f c224 803f
000001d0: 88b3 7f3f 67ed 7f3f 4091 7e3f c97f 803f
000001e0: 8c34 803f bdc2 7e3f 8050 803f 9bbf 803f
000001f0: be14 813f 8a10 803f 97aa 803f 572b 803f

bn1.bias f4 [128]
-0.00049258384 -0.0048491717 -0.003009986 0.0015076756 0.0066499044 -0.0064709242 -0.0024871207 0.0054820124
0.001824718 0.003670324 0.0060727256 0.0011448197 0.00603157 0.0033824085 -0.006134535 0.0011191362
0.0030316785 0.00464932 -0.001481649 -0.002033806 0.005832352 0.0022755119 -0.0020434528 -0.0023685577
-0.0051668677 -0.004784999 0.0008860125 -0.002506557 0.0032800524 0.0009500395 0.004926612 0.00036123808
-0.002482274 -0.008187329 -0.008475419 0.0017549003 0.0021714964 0.0026936429 6.907634e-05 -0.0031152577
-0.007560529 -0.003540715 0.0029723332 -0.002280787 -0.00041906003 0.0019105237 -0.0049972394 -0.0015847617
0.0050646197 -0.002879391 5.2505813e-05 -0.007189628 0.0040796534 0.0033359071 0.0025515554 0.0020452596
0.0020350877 0.0030566808 -0.00053581607 0.004773421 -0.0075062015 -0.00799598 -0.006969347 0.0048418785
0.004238709 0.0037606435 0.0045096646 0.0009660443 0.0011712689 -0.005783885 -0.0032078254 -0.0009900873
-0.0015408496 0.00049072027 0.0023800905 0.0011905765 -0.0021605208 0.0011841182 0.0062172217 0.0076933997
0.0017599284 0.0014533326 8.835376e-05 -0.0016380278 -0.0005337378 -0.0063797324 -0.0012588357 -0.0015011886
-0.0050674183 -0.0051146448 0.0007568456 -0.005034261 -0.0028027948 -0.0025902365 -0.002580446 -0.004756891
0.002909109 0.002130232 -0.0023973887 0.00019762956 -0.0027162666 -0.004011952 0.0015780227 0.0021127735
-0.0056738686 0.0029617785 0.0016018413 0.0007623387 -0.0020219558 -0.008396182 0.0056679645 0.00014885819
-0.0011237104 0.0012253189 -0.0024320593 0.0010989094 -0.00093088724 -0.0024906094 -0.0061112996 -0.003119228
-0.0011695627 -0.0029167132 -0.0029282577 0.005654521 0.007726214 0.003368153 0.00578102 -0.003317632
00000000: be20 01ba cde5 9ebb 2f43 45bb 339d c53a
00000010: 71e7 d93b 0c0a d4bb f6fe 22bb 74a2 b33b
00000020: 602b ef3a d289 703b b7fd c63b c60d 963a
00000030: 7aa4 c53b 66ab 5d3b 3604 c9bb fbaf 923a
00000040: 20af 463b 5359 983b e433 c2ba 9a49 05bb
00000050: 511d bf3b c120 153b 73eb 05bb ce39 1bbb
00000060: d44e a9bb 7bcb 9cbb 4b43 683a 0c45 24bb
00000070: 26f6 563b 120c 793a 6b6f a13b 8e64 bd39
00000080: a6ad 22bb 2624 06bc 7cdc 0abc af04 e63a
00000090: aa4f 0e3b d487 303b 14dd 9038 5a29 4cbb
000000a0: 50be f7bb 570b 68bb 7acb 423b 4279 15bb
000000b0: 49b5 dbb9 8a6a fa3a e2bf a3bb c7b7 cfba
000000c0: 1cf5 a53b 2ab4 3cbb b039 5c38 f996 ebbb
000000d0: 9dae 853b 3c9f 5a3b ff37 273b c309 063b
000000e0: 1b5f 053b 9852 483b 0276 0cba 5c6a 9c3b
000000f0: 95f6 f5bb 9201 03bc 1f5f e4bb 9fa8 9e3b
00000100: dee4 8a3b 2175 763b cfc5 933b 233e 7d3a
00000110: 4385 993a be86 bdbb 613a 52bb d1c5 81ba
00000120: 55f6 c9ba aea3 003a 4bfb 1b3b 1e0d 9c3a
00000130: 8697 0dbb 6a34 9b3a d6b9 cb3b ea18 fc3b
00000140: 66ad e63a c07d be3a 904a b938 18b3 d6ba
00000150: 8aea 0bba 130d d1bb 84ff a4ba 88c3 c4ba
00000160: 960c a6bb c098 a7bb 0c67 463a 71f6 a4bb
00000170: 18af 37bb f5c0 29bb b31c 29bb b2df 9bbb
00000180: c0a6 3e3b 5d9b 0b3b 821d 1dbb c83a 4f39
00000190: 6403 32bb b176 83bb a8d5 ce3a 7576 0a3b
000001a0: dceb b9bb 661a 423b e0f4 d13a afd7 473a
000001b0: ca82 04bb 2490 09bc 55ba b93b d116 1c39
000001c0: 7749 93ba e19a a03a 2f63 1fbb 4809 903a
000001d0: c906 74ba 7e39 23bb 4c41 c8bb f66b 4cbb
000001e0: 034c 99ba 5426 3fbb 03e8 3fbb 8f49 b93b
000001f0: 2e2c fd3b 3bbc 5c3b b66e bd3b a16c 59bb

bn1.running_mean f4 [128]
-147.24533 186.89558 8.377797 118.94605 90.72139 -93.7958 78.48537 -139.62358
94.104126 -118.56924 17.937475 83.00502 -187.44171 186.79993 184.29158 189.34807
121.675316 127.52399 58.871643 -70.36989 39.352726 17.930048 157.60747 6.7348046
24.63758 -47.743053 130.86224 103.700424 49.513542 -100.41697 -122.77263 13.892022
-88.50686 -167.60574 165.44847 -64.074715 -180.5208 -4.8757267 156.31729 180.66093
25.08215 9.928814 -35.97974 -122.71787 131.344 -112.64816 49.405727 -105.41153
180.08017 39.481983 152.59206 152.8146 -107.445145 -130.05891 -93.62293 -73.9441
-24.253714 -77.58419 -19.599525 151.02533 -180.29175 132.5147 117.18492 -20.841446
137.24982 -34.936844 -35.425232 113.68313 -29.348541 -155.75238 53.318077 100.72446
72.83639 42.903053 147.00893 -158.6352 108.97643 22.320042 -166.95732 101.224754
3.875934 82.04912 -77.54 -36.320736 121.17462 -133.33505 -110.59341 -60.753536
-43.81172 165.32497 44.781837 82.598404 -105.11945 -58.65358 49.6551 -130.46446
19.83173 -111.264 -152.94534 -37.88964 -96.37783 133.70021 141.28122 181.09741
115.3183 7.9253106 -23.08584 114.42216 112.90884 -77.56842 -30.43063 -124.13861
42.723564 48.413708 -23.466711 2.1794991 -34.764378 -49.7439 -45.403168 -74.62244
123.41169 146.53252 169.06024 39.836174 -14.369036 48.12542 156.63446 128.40814
00000000: ce3e 13c3 45e5 3a43 750b 0641 61e4 ed42
00000010: 5a71 b542 7397 bbc2 82f8 9c42 a39f 0bc3
00000020: 5035 bc42 7323 edc2 f37f 8f41 9202 a642
00000030: 1471 3bc3 c8cc 3a43 a54a 3843 1b59 3d43
00000040: c359 f342 480c ff42 907c 6b42 62bd 8cc2
00000050: 3169 1d42 bd70 8f41 839b 1d43 8583 d740
00000060: c419 c541 e3f8 3ec2 bcdc 0243 9e66 cf42
00000070: de0d 4642 7dd5 c8c2 968b f5c2 b945 5e41
00000080: 8303 b1c2 129b 27c3 cf72 2543 4126 80c2
00000090: 5385 34c3 f405 9cc0 3a51 1c43 33a9 3443
000000a0: 3ea8 c841 6cdc 1e41 41eb 0fc2 8d6f f5c2
000000b0: 1058 0343 dc4b e1c2 779f 4542 b4d2 d2c2
000000c0: 8614 3443 8ded 1d42 9197 1843 8ad0 1843
000000d0: eae3 d6c2 150f 02c3 f13e bbc2 61e3 93c2
000000e0: 9b07 c2c1 1b2b 9bc2 d4cb 9cc1 7c06 1743
000000f0: b04a 34c3 c383 0443 ae5e ea42 48bb a6c1
00000100: f43f 0943 54bf 0bc2 70b3 0dc2 c35d e342
00000110: d0c9 eac1 9cc0 1bc3 b645 5542 ec72 c942
00000120: 3bac 9142 ba9c 2b42 4902 1343 9ca2 1ec3
00000130: eff3 d942 728f b241 13f5 26c3 1373 ca42
00000140: 4d0f 7840 2619 a442 7b14 9bc2 6f48 11c2
00000150: 6859 f242 c655 05c3 d32f ddc2 9f03 73c2
00000160: 343f 2fc2 3153 2543 9a20 3342 6232 a542
00000170: 293d d2c2 449d 6ac2 d39e 4642 e776 02c3
00000180: 62a7 9e41 2b87 dec2 02f2 18c3 fe8e 17c2
00000190: 73c1 c0c2 41b3 0543 fe47 0d43 f018 3543
000001a0: f8a2 e642 259c fd40 cdaf b8c1 25d8 e442
000001b0: 53d1 e142 0823 9bc2 ee71 f3c1 f846 f8c2
000001c0: eee4 2a42 a3a7 4142 d3bb bbc1 ea7c 0b40
000001d0: b90e 0bc2 c1f9 46c2 d89c 35c2 b03e 95c2
000001e0: c9d2 f642 5388 1243 6c0f 2943 3e58 1f42
000001f0: 92e7 65c1 6e80 4042 6ca2 1c43 7c68 0043

bn1.running_var f4 [128]
1437.1326 1502.6101 4.007911 666.19 613.1576 471.04086 169.26294 1972.2292
519.30347 752.9601 110.36602 543.52747 1603.742 1305.7842 1483.7662 1690.4867
1081.6807 1098.96 151.82594 258.68146 171.58102 116.851616 1242.1946 70.704155
7.6835947 431.43027 1558.1802 978.98517 131.73839 605.65326 846.487 6.0011725
518.3308 2196.8113 1467.238 402.94537 1529.6664 5.204691 2503.714 1146.7249
31.79142 9.907413 20.79898 1244.6421 566.08746 796.42255 47.98079 983.72174
1618.7603 100.83696 1880.2015 1484.3862 598.3308 1182.3512 461.55652 878.47766
91.10176 787.8134 70.476326 1382.0265 1797.1982 973.71436 929.3319 82.520515
1480.9734 50.36451 189.28908 585.3208 35.51452 1779.5715 295.535 431.94788
221.01099 139.41231 1549.275 1525.3477 1262.7244 143.79352 1800.8287 401.34473
53.002693 519.8112 264.75186 174.35886 854.83636 1492.6544 403.8741 494.47913
326.89807 1534.1638 45.781353 259.83047 789.2635 192.3063 144.1189 628.268
10.988935 675.9636 1829.0962 261.93817 861.09827 823.451 958.9627 1426.6625
462.34323 111.535706 14.707833 414.03708 735.8555 765.76447 20.591402 949.3304
44.937435 307.64716 9.126036 40.060474 27.397484 24.851694 116.54056 362.40787
1311.9789 810.36505 1947.4027 246.91805 3.090809 32.671665 2289.7249 1075.1748
00000000: 3ea4 b344 86d3 bb44 cf40 8040 298c 2644
00000010: 164a 1944 3b85 eb43 5043 2943 5687 f644
00000020: 6cd3 0144 723d 3c44 67bb dc42 c2e1 0744
00000030: be77 c844 1839 a344 8578 b944 934f d344
00000040: c835 8744 b85e 8944 71d3 1743 3a57 8143
00000050: be94 2b43 07b4 e942 3a46 9b44 8768 8d42
00000060: 02e0 f540 13b7 d743 c4c5 c244 0dbf 7444
00000070: 07bd 0343 cf69 1744 2b9f 5344 9b09 c040
00000080: 2c95 0144 fb4c 0945 9e67 b744 0279 c943
00000090: 5335 bf44 d48c a640 6d7b 1c45 3257 8f44
000000a0: d454 fe41 c384 1e41 5064 a641 8c94 9b44
000000b0: 9985 0d44 0b1b 4744 54ec 3f42 31ee 7544
000000c0: 5458 ca44 86ac c942 7306 eb44 5c8c b944
000000d0: 2c95 1544 3dcb 9344 3cc7 e643 929e 5b44
000000e0: 1a34 b642 0ff4 4444 e1f3 8c42 d9c0 ac44
000000f0: 58a6 e044 b86d 7344 3e55 6844 810a a542
00000100: 261f b944 4275 4942 014a 3d43 8854 1244
00000110: de0e 0e42 4a72 de44 7bc4 9343 54f9 d743
00000120: d002 5d43 8d69 0b43 cda8 c144 20ab be44
00000130: 2ed7 9d44 24cb 0f43 851a e144 20ac c843
00000140: c202 5442 ebf3 0144 3d60 8443 de5b 2e43
00000150: 87b5 5544 f194 ba44 e3ef c943 543d f743
00000160: f472 a343 3ec5 bf44 1b20 3742 4dea 8143
00000170: dd50 4544 6a4e 4043 701e 1043 2711 1d44
00000180: aed2 2f41 acfd 2844 14a3 e444 16f8 8243
00000190: 4a46 5744 dddc 4d44 9dbd 6f44 3355 b244
000001a0: ef2b e743 4812 df42 4953 6b41 bf04 cf43
000001b0: c1f6 3744 ed70 3f44 31bb a441 2555 6d44
000001c0: efbf 3342 d6d2 9943 3e04 1241 ed3d 2042
000001d0: 0c2e db41 45d0 c641 c414 e942 3534 b543
000001e0: 53ff a344 5d97 4a44 e36c f344 05eb 7643
000001f0: d1cf 4540 c9af 0242 991b 0f45 9865 8644

layer2.weight f4 [64, 128]
0.0065580523 0.07967833 0.040169146 -0.020746447 0.029475743 -0.07644354 0.042797297 0.044350218
-0.08108397 -0.07111823 0.0016141735 -0.06385421 0.010486534 0.056017984 -0.069663905 0.040884644
-0.013885317 -0.055571195 -0.078331076 0.062248435 -0.03764372 0.086173214 -0.0013908241 -0.03024259
-0.00292679 0.022247035 -0.0733332 -0.05052332 0.01475634 0.041303284 0.072082296 -0.030610463
0.09298378 -0.019165488 0.026649706 0.023744375 -0.0698684 -0.07439364 -0.025029738 -0.08010048
-0.08083176 -0.032266278 -0.08375315 -0.04084401 0.0148531785 0.040154696 -0.08166131 -0.058385752
-0.081875734 -0.08922174 0.015672278 -0.07213227 0.025268067 0.059987098 -0.012536421 -0.086291194
-0.05207278 -0.06057325 0.015540014 0.05066593 -0.023915265 -0.07007799 -0.06732995 -0.052670818
-0.012172218 0.036210965 -0.069249846 -0.056708492 -0.051377382 -0.069371626 -0.0016403974 0.016965589
-0.046737406 0.08623866 -0.04008335 0.03445717 0.01943182 0.07047031 -0.01120296 -0.01872735
0.07339233 0.050109014 0.077729456 -0.08440445 0.07866039 -0.015852213 0.0031641312 0.090828426
-0.0014853844 -0.061978027 -0.00026327628 0.010282286 -0.08172704 -0.07958361 -0.07070803 -0.08480772
-0.021656249 0.0047616074 -0.08503418 0.056994293 0.08962513 0.074522935 0.0073588965 0.026238073
-0.007342389 0.014791359 0.028039578 -0.041972145 -0.031413354 0.05687827 0.05443601 -0.062870055
0.016080432 -0.08837587 -0.07651594 -0.070799656 0.048219066 0.035754118 0.051888425 -0.0756462
0.07339489 -0.048604578 0.017312894 0.05726692 -0.04681805 0.017007954 0.085757665 0.019394593
0.092030846 -0.070324734 0.024117285 -0.061540224 -0.008370467 0.040597126 -0.009139402 0.012428639
0.004720007 0.047130737 -0.021786023 -0.040488075 0.0053478717 0.028761342 0.07673706 -0.055772327
-0.060958542 0.06563316 -0.0037249373 0.0668705 0.019236967 -0.08597465 -0.047621936 0.08113049
-0.029684117 -0.03120801 0.003074354 -0.059448466 0.03665823 -0.0033429833 0.060053024 -0.07046533
0.06053398 0.044187445 0.06540543 -0.061676655 -0.034405943 0.054743525 -0.023945674 0.032604862
0.084992416 -0.05403012 0.029364469 -0.004425706 -0.055897735 -0.058869917 -0.0020385426 -0.052746665
0.07321287 0.012631256 -0.010632985 -0.0022682494 -0.027069844 -0.031956512 0.051085006 0.043141637
-0.06511452 0.066582 0.0882315 -0.028876789 -0.0019278437 0.03383191 0.08347645 -0.022541007
-0.05641707 -0.03649737 0.066085614 -0.08504261 0.08541178 -0.059622806 0.046993993 0.054458268
0.06764508 0.028692754 0.061296422 0.02842416 0.02743699 -0.061908048 0.026331702 -0.021980528
0.068591274 0.008494082 0.060588967 0.07024071 -0.04250705 0.06359006 -0.0626077 0.0075376
0.020059297 0.019903861 -0.037350398 -0.015225447 0.041428268 0.08890121 -0.0791724 0.057902478
-0.06389066 0.031890992 -0.045264784 0.0034668602 0.02259702 0.08633376 -0.062102653 0.08221911
0.02410064 -0.01513416 0.030244892 -0.038588658 -0.048896432 0.061117303 0.061101086 0.01284665
-0.013263877 0.0350577 -0.007612363 -0.06656475 -0.055689186 0.02185314 0.016785258 0.051307503
-0.076164305 0.070311144 0.034931198 -0.06482787 0.013717486 0.0044053094 0.0027294983 0.06728003
00000000: eee4 d63b 642e a33d 6788 243d 74f4 a9bc
00000010: 1d77 f13c 6e8e 9cbd 384c 2f3d 93a8 353d
00000020: 5a0f a6bd 6fa6 91bd ad92 d33a ffc5 82bd
00000030: b6cf 2b3c 1d73 653d f3ab 8ebd a876 273d
00000040: 3e7f 63bc 9f9e 63bd 0b6c a0bd 37f8 7e3d
00000050: 4d30 1abd 957b b03d 504c b6ba 4fbf f7bc
00000060: 63cf 3fbb 6a3f b63c b72f 96bd 8af1 4ebd
00000070: 93c4 713c a22d 293d e29f 933d cbc2 fabc
00000080: 486e be3d f100 9dbc 7c50 da3c 9083 c23c
00000090: 2a17 8fbd b15b 98bd 2a0b cdbc b80b a4bd
000000a0: 1f8b a5bd a529 04bd c686 abbd 0c4c 27bd
000000b0: bf5a 733c 4079 243d 0b3e a7bd e625 6fbd
000000c0: 77ae a7bd e3b9 b6bd 2663 803c 15ba 93bd
000000d0: fafe ce3c 08b5 753d 9065 4dbc 70b9 b0bd
000000e0: 444a 55bd a81b 78bd 8b9b 7e3c 1487 4f3d
000000f0: f2e9 c3bc 0d85 8fbd 49e4 89bd 5bbd 57bd
00000100: fc6d 47bc f351 143d ddd2 8dbd 2a47 68bd
00000110: 1771 52bd b612 8ebd 9a02 d7ba 6bfb 8a3c
00000120: b96f 3fbd e59d b03d 702e 24bd f622 0d3d
00000130: 7b2f 9f3c bd52 903d 9f8c 37bc 196a 99bc
00000140: b84e 963d 1c3f 4d3d 9f30 9f3d 3edc acbd
00000150: b318 a13d 80dc 81bc 505d 4f3b 4104 ba3d
00000160: 3bb1 c2ba acdc 7dbd 5808 8ab9 0977 283c
00000170: 8260 a7bd bbfc a2bd 5fcf 90bd abaf adbd
00000180: 7268 b1bc 4207 9c3b 6626 aebd d972 693d
00000190: 618d b73d 7b9f 983d e622 f13b 3af1 d63c
000001a0: 6c98 f0bb 7557 723c 42b3 e53c fcea 2bbd
000001b0: 4aab 00bd 30f9 683d 4bf8 5e3d 04c2 80bd
000001c0: 1cbb 833c 68fe b4bd 64b4 9cbd 69ff 90bd
000001d0: 5b81 453d e972 123d f588 543d 65ec 9abd
000001e0: 0f50 963d 9815 47bd c5d3 8d3c b890 6a3d
000001f0: 49c4 3fbd 4454 8b3c b7a1 af3d 69e1 9e3c
00000200: ab7a bc3d 6a06 90bd 9d91 c53c 9a11 7cbd
00000210: 4924 09bc 2c49 263d 6ebd 15bc 7ea1 4b3c
00000220: 4aaa 9a3b 290c 413d 9a78 b2bc d3d6 25bd
00000230: 333d af3b e89c eb3c 5228 9d3d 8671 64bd
00000240: aaaf 79bd ae6a 863d 141e 74bb 67f3 883d
00000250: d896 9d3c 7a13 b0bd 380f 43bd be27 a63d
00000260: 1b2c f3bc f1a7 ffbc 1a7b 493b 3c80 73bd
00000270: f126 163d f415 5bbb 29fa 753d 2050 90bd
00000280: 7bf2 773d e5fd 343d 48f3 853d a9a0 7cbd
00000290: 3fed 0cbd bf3a 603d b829 c4bc ad8c 053d
000002a0: 8110 ae3d b04e 5dbd c18d f03c 8305 91bb
000002b0: 06f5 64bd 9521 71bd 1299 05bb e30c 58bd
000002c0: a1f0 953d 54f3 4e3c f935 2ebc e9a6 14bb
000002d0: 94c1 ddbc d5e4 02bd 833e 513d 49b5 303d
000002e0: c35a 85bd 255c 883d b7b2 b43d 048f ecbc
000002f0: b3af fcba 5493 0a3d b3f5 aa3d eba7 b8bc
00000300: 9615 67bd 447e 15bd e557 873d d22a aebd
00000310: 5fec ae3d 0b37 74bd c67c 403d a20f 5f3d
00000320: 8189 8a3d 110d eb3c f511 7b3d c9d9 e83c
00000330: 8ac3 e03c 4b93 7dbd 95b5 d73c 8210 b4bc
00000340: 9579 8c3d c32a 0b3c 232c 783d 5dda 8f3d
00000350: df1b 2ebd 813b 823d 7738 80bd f9fd f63b
00000360: 6553 a43c 6c0d a33c bbfc 18bd 2774 79bc
00000370: b0b0 293d d611 b63d 2425 a2bd 262b 6d3d
00000380: 1bd9 82bd 21a0 023d 9167 39bd 4334 633b
00000390: 631d b93c c1cf b03d 5a5f 7ebd 7e62 a83d
000003a0: b56e c53c 45f5 77bc 23c4 f73c 240f 1ebd
000003b0: a047 48bd 2356 7a3d 2245 7a3d c17a 523c
000003c0: bb50 59bc aa98 0f3d 2171 f9bb 1a53 88bd
000003d0: 581a 64bd 5b05 b33c 3d81 893c d127 523d
000003e0: 08fc 9bbd 4aff 8f3d 0414 0f3d 79c4 84bd
000003f0: 4ebf 603c 6a5a 903b 62e1 323b 1dca 893d

layer2.bias f4 [64]
0.03957457 0.008550745 -0.043061174 0.07006628 -0.04963672 -0.07687031 -0.08226007 0.021021817
-0.011415652 -0.012403456 -0.04275349 0.0015243068 -0.05650617 -0.034832634 0.073349684 -0.060392246
-0.063563764 -0.06329541 0.017665647 -0.011711287 0.06727829 0.046673026 0.025776118 0.007585767
-0.061733097 0.049147118 0.06697923 0.0057209902 -0.08012666 0.00079710875 -0.08334674 0.0146715725
-0.024381177 0.043418065 -0.0136994915 -0.02815044 -0.026914794 -0.050760686 0.04496727 0.059676025
-0.03987994 0.08703136 -0.024171298 0.036424577 0.020234358 0.029798202 0.066141754 -0.018656323
0.0069734235 -0.061435793 0.019240815 0.054052696 0.047557104 0.045569863 -0.052529093 0.07935531
0.08092441 -0.009653843 0.027943058 0.06138291 -0.06775336 0.042772837 0.004495319 -0.035144553
00000000: f218 223d 6d18 0c3c ea60 30bd e97e 8f3d
00000010: e04f 4bbd 2e6e 9dbd f877 a8bd f235 ac3c
00000020: b708 3bbc dd37 4bbc 491e 2fbd 40cb c73a
00000030: 0473 67bd aaac 0ebd 5c38 963d dc5d 77bd
00000040: b82d 82bd 06a1 81bd 8cb7 903c b3e0 3fbc
00000050: 33c9 893d 372c 3f3d 7028 d33c 0792 f83b
00000060: d8db 7cbd 7d4e 493d 682c 893d 2577 bb3b
00000070: 7219 a4bd 10f5 503a b2b1 aabd 0961 703c
00000080: 09bb c7bc 24d7 313d d573 60bc c09b e6bc
00000090: 6a7c dcbc 70ea 4fbd 9a2f 383d d96e 743d
000000a0: 2659 23bd 7f3d b23d e302 c6bc f031 153d
000000b0: 86c2 a53c 5c1b f43c 5475 873d 25d5 98bc
000000c0: 5181 e43b 19a4 7bbd ea9e 9d3c 5c66 5d3d
000000d0: 3dcb 423d 77a7 3a3d bf28 57bd 0985 a23d
000000e0: b2bb a53d 272b 1ebc d7e8 e43c a56c 7b3d
000000f0: 46c2 8abd 9232 2f3d 784d 933b bcf3 0fbd

bn2.weight f4 [64]
0.9994019 1.0068864 0.99931103 1.0024917 1.0084059 1.0080179 0.99292725 0.9996441
1.0089579 0.9980238 0.99488235 1.0090164 0.9998111 0.9936841 1.008014 0.99851
0.9971772 1.0038364 0.9919446 0.9936606 1.0055615 1.0073376 0.9956898 0.9944675
0.9940851 1.0078889 0.9946659 0.999138 0.9914177 1.0014309 0.9915561 0.9916332
1.0042654 1.0081924 1.0008847 1.0048133 0.9918951 1.0046247 1.0055228 1.0055823
0.99984646 1.0002329 1.0033841 1.0038658 1.0026802 0.9969258 0.9929478 0.9939756
0.99896276 0.9949545 0.9915685 1.0058739 1.0043656 1.0064906 1.0012476 1.0031389
0.9915067 1.0029829 1.0014843 1.0082413 0.9953207 1.0039045 1.0003576 0.99302524
00000000: ced8 7f3f a7e1 803f d9d2 7f3f a651 803f
00000010: 7213 813f bb06 813f 7b30 7e3f ade8 7f3f
00000020: 8825 813f 7d7e 7f3f 9cb0 7e3f 7327 813f
00000030: 9ff3 7f3f 1562 7e3f 9a06 813f 5a9e 7f3f
00000040: 0147 7f3f b67d 803f 15f0 7d3f 8b60 7e3f
00000050: 3db6 803f 70f0 803f 87e5 7e3f 6c95 7e3f
00000060: 5c7c 7e3f 8102 813f 6da2 7e3f 82c7 7f3f
00000070: 8dcd 7d3f e32e 803f 9fd6 7d3f acdb 7d3f
00000080: c58b 803f 730c 813f fd1c 803f b99d 803f
00000090: d6ec 7d3f 8b97 803f f9b4 803f ecb6 803f
000000a0: f0f5 7f3f a207 803f e46e 803f ad7e 803f
000000b0: d357 803f 8736 7f3f d431 7e3f 2f75 7e3f
000000c0: 06bc 7f3f 57b5 7e3f 6fd7 7d3f 7ac0 803f
000000d0: 0d8f 803f afd4 803f e228 803f db66 803f
000000e0: 62d3 7d3f be61 803f a330 803f 0d0e 813f
000000f0: 56cd 7e3f f17f 803f b80b 803f e736 7e3f

bn2.bias f4 [64]
-8.235162e-06 0.0051473584 0.0013652117 -0.00040038838 0.008756972 0.0078736665 -0.0073117083 -0.0015384265
0.008918024 -0.0026940517 -0.00397344 0.008711448 -0.0017512115 -0.007339239 0.0073438846 0.005345765
-0.003507567 0.0040541478 -0.007398868 -0.0067095766 -0.00068327226 0.00768578 -0.0055927555 -0.0051849876
-0.005722799 0.0064047417 -0.0022993665 -0.0054294043 -0.008656367 0.0009885327 -0.008425444 -0.008670942
0.0042030117 0.008203545 9.6735515e-05 0.0031733776 -0.008281709 0.0027429198 0.0050592194 0.0060072243
-0.001072433 -0.0017812358 0.0008269167 0.0035073487 0.00051144895 -0.0037177966 -0.0066102953 -0.006017198
-0.0020130367 -0.0055249953 -0.005289164 0.002665629 -0.0037136767 0.006406578 0.0024700963 0.004524569
-0.008267814 0.0034001232 0.0021197966 0.00823781 -0.0056387973 0.005144417 0.0014773898 -0.006118349
00000000: c029 0ab7 2cab a83b e7f0 b23a 38eb d1b9
00000010: 6779 0f3c 8d00 013c 0e97 efbb 07a5 c9ba
00000020: e71c 123c b08e 30bb a133 82bb 76ba 0e3c
00000030: e888 e5ba 007e f0bb f8a4 f03b 872b af3b
00000040: 36df 65bb a8d8 843b 3472 f2bb 02dc dbbb
00000050: a01d 33ba ffd8 fb3b 6f43 b7bb d4e6 a9bb
00000060: 5186 bbbb dede d13b f8b0 16bb 25e9 b1bb
00000070: 6fd3 0dbc a791 813a e00a 0abc 9110 0ebc
00000080: 6bb9 893b 2968 063c 7cde ca38 71f8 4f3b
00000090: 01b0 07bc 8fc2 333b cfc7 a53b 40d8 c43b
000000a0: e190 8cba 5b78 e9ba 71c5 583a 8cdb 653b
000000b0: c212 063a 47a6 73bb 2d9b d8bb ea2b c5bb
000000c0: 27ed 03bb 050b b5bb b950 adbb d5b1 2e3b
000000d0: 2861 73bb 45ee d13b 57e1 213b d642 943b
000000e0: ba75 07bc 9ad4 5e3b 49ec 0a3b e1f7 063c
000000f0: a9c5 b8bb 7f92 a83b faa4 c13a 6e7c c8bb

bn2.running_mean f4 [64]
-0.27248755 0.2597092 -0.012682764 -0.16102226 -0.051657297 0.121623404 0.07969489 0.079810336
-0.1082406 0.36829227 -0.07902602 -0.085640244 0.10402227 -0.19657636 0.2142575 0.2794013
-0.29065788 -0.31708816 0.007577989 0.39997524 0.35288304 0.11204998 0.111334614 -0.24916805
-0.022053543 0.27145502 -0.08984256 0.09444721 -0.20771098 0.05863081 -0.12739617 -0.18653348
0.1694631 0.10198631 0.058704592 -0.057454206 0.11938531 -0.14114168 -0.17560269 0.22565441
0.23133685 0.1924396 -0.14478028 0.15353164 -0.11388685 0.39123625 -0.09470808 0.23575552
0.052604 -0.3320041 0.2518555 -0.17110525 -0.1740865 0.008681612 -0.108532004 0.27443957
-0.05962193 0.010585044 0.23257813 0.11535637 -0.12193976 -0.040483207 0.07569621 0.14733443
00000000: 7d83 8bbe 9bf8 843e 5ecb 4fbc 05e3 24be
00000010: 9a96 53bd b115 f93d 1337 a33d 9a73 a33d
00000020: 3fad ddbd ce90 bc3e 65d8 a1bd 2764 afbd
00000030: a109 d53d 504b 49be 5166 5b3e b00d 8f3e
00000040: 1cd1 94be 6159 a2be c750 f83b 8ec9 cc3e
00000050: 16ad b43e 767a e53d 6703 e43d e925 7fbe
00000060: a2a9 b4bc 27fc 8a3e 60ff b7bd 8a6d c13d
00000070: 30b2 54be dc26 703d 2474 02be a202 3fbe
00000080: bc87 2d3e 33de d03d 3a74 703d 1a55 6bbd
00000090: 4980 f43d 7287 10be 31d1 33be f311 673e
000000a0: 91e3 6c3e e30e 453e 4841 14be 6637 1d3e
000000b0: 823d e9bd 1e50 c83e 4ff6 c1bd e569 713e
000000c0: 4b77 573d 71fc a9be 34f3 803e 3736 2fbe
000000d0: bb43 32be 523d 0e3c 0746 debd 5883 8c3e
000000e0: 2036 74bd e46c 2d3c f628 6e3e f63f ec3d
000000f0: 8ebb f9bd b8d1 25bd 9d06 9b3d d6de 163e

bn2.running_var f4 [64]
0.44195265 0.5597796 0.43552735 0.4092693 0.4408718 0.4984686 0.42251313 0.5047299
0.7043804 0.5853691 0.45926422 0.435078 0.43281618 0.44724128 0.54349047 0.4542015
0.54063743 0.54408485 0.43558183 0.5665159 0.54308677 0.5405364 0.39377156 0.43252438
0.4075402 0.41450274 0.49049193 0.5664209 0.47073662 0.6390008 0.41423118 0.55186874
0.44742486 0.54978657 0.43126127 0.5331168 0.4088325 0.5405474 0.6499512 0.407855
0.5180073 0.46837202 0.6848926 0.40698075 0.4754592 0.5171074 0.43735307 0.4669967
0.49177298 0.4754149 0.5545419 0.58337194 0.5225154 0.41845182 0.48390755 0.41763043
0.42152148 0.3910307 0.40247113 0.6533167 0.42963096 0.4808805 0.47804338 0.50700027
00000000: 9e47 e23e b74d 0f3f 71fd de3e bf8b d13e
00000010: f3b9 e13e 4737 ff3e a453 d83e fb35 013f
00000020: 4652 343f c0da 153f ae24 eb3e 8bc2 de3e
00000030: 159a dd3e cffc e43e 3122 0b3f 198d e83e
00000040: 3767 0a3f 2549 0b3f 9504 df3e 3007 113f
00000050: bc07 0b3f 9860 0a3f 6d9c c93e d673 dd3e
00000060: 1ca9 d03e b439 d43e c221 fb3e f600 113f
00000070: 6404 f13e 8e95 233f 1c16 d43e 4547 0d3f
00000080: df14 e53e d0be 0c3f 47ce dc3e 587a 083f
00000090: 7e52 d13e 5061 0a3f 3463 263f 5fd2 d03e
000000a0: 209c 043f 75ce ef3e 1f55 2f3f c85f d03e
000000b0: 636f f33e 2761 043f beec df3e 311a ef3e
000000c0: abc9 fb3e 9569 f33e 75f6 0d3f dd57 153f
000000d0: 92c3 053f 513f d63e bbc2 f73e a8d3 d53e
000000e0: aad1 d73e 2d35 c83e b210 ce3e c33f 273f
000000f0: 97f8 db3e f835 f63e 1ac2 f43e c5ca 013f

layer3.weight f4 [3, 64]
-0.1000728 0.016946763 -0.00043048628 -0.017470287 -0.08601876 0.055308856 0.110288836 -0.07582871
-0.097313166 0.02858237 0.06441012 -0.059095807 -0.037029896 0.0843803 -0.10781882 0.068190694
0.10584836 0.049419243 0.11785448 0.051598385 -0.0955869 -0.07375456 0.08836366 0.047991164
-0.020752594 -0.08924564 -0.020900501 -0.121431276 -0.0874538 0.0074640173 -0.029743187 0.074396394
-0.00042532766 0.094338186 -0.08797163 0.032813516 0.04069235 0.03936852 -0.08069468 0.0035226855
-0.042633478 -0.028200919 0.09977167 -0.0026440325 0.017591927 0.09435759 0.08463675 0.11647699
0.10491223 -0.037629962 -0.041747764 -0.12533766 0.008728074 -0.07212931 0.103857815 0.006414025
-0.035462048 0.08965866 0.002477026 -0.031423166 0.09235728 -0.0547896 -0.06921529 0.09494717
0.021366742 -0.0770316 -0.08347394 -0.047297224 -0.015798628 0.12886749 -0.05402855 -0.08493134
0.10675268 -0.068059675 0.013867504 0.07358035 -0.10730227 -0.07057921 -0.010377279 0.08810406
0.03187522 0.11589783 -0.11639598 0.004982975 -0.111989535 -0.032482944 -0.09773502 -0.0153942695
0.12445648 0.050890204 -0.045172483 -0.067528084 -0.092272535 -0.08014782 -0.10090849 0.022955243
0.062411834 0.016731745 -0.019337894 0.032845706 -0.039048895 -0.054763984 -0.05823508 0.054834835
-0.06667407 -0.0132201705 -0.102811396 0.034499224 0.06862299 0.07572595 -0.11101866 0.024542246
-0.07742634 -0.050823804 -0.034621608 -0.09805331 0.015462267 -0.025858603 0.04035133 0.034983926
-0.10692329 0.11207257 0.08346667 0.09135462 0.04059719 0.022078965 0.06622427 0.022459777
-0.018363146 0.08544997 -0.120969936 0.029036779 -0.11532861 -0.06554736 0.034619942 0.047254186
-0.09335655 -0.01982981 -0.10469248 0.0224501 0.08813565 -0.03190919 -0.115781724 -0.09820404
-0.0887712 0.07772344 0.06058661 0.06261314 -0.07429529 -0.062915035 0.082361475 -0.12303819
-0.058710717 -0.002389973 0.1013449 0.11162235 0.032211576 0.06362455 0.043847904 0.07452507
0.05858212 -0.072448924 0.008546858 0.08826476 -0.017996252 0.09060211 0.09194043 0.052888148
-0.035739213 -0.008513567 0.11616732 0.07313177 0.10842448 0.061903544 -0.019185033 0.013946876
0.02013658 0.050435487 0.010212913 0.06768812 0.096766606 -0.05760434 -0.03322285 0.028959775
0.10896831 0.05736079 0.087881766 -0.047563203 0.11999632 -0.11046841 -0.055732075 -0.10827976
00000000: f8f2 ccbd f0d3 8a3c e4b2 e1b9 d91d 8fbc
00000010: 9b2a b0bd 8a8b 623d 1ddf e13d 154c 9bbd
00000020: 204c c7bd 9325 ea3c 74e9 833d 720e 72bd
00000030: a9ac 17bd 94cf ac3d 1dd0 dcbd 90a7 8b3d
00000040: 06c7 d83d d56b 4a3d b15d f13d d458 533d
00000050: 11c3 c3bd a10c 97bd 02f8 b43d 6292 443d
00000060: 5801 aabc 6bc6 b6bd 8737 abbc f6b0 f8bd
00000070: fa1a b3bd b794 f43b fca7 f3bc 235d 983d
00000080: 83fe deb9 6134 c13d 782a b4bd 7767 063d
00000090: 06ad 263d e340 213d 4143 a5bd dbdc 663b
000000a0: 71a0 2ebd 9d05 e7bc 1755 cc3d 8147 2dbb
000000b0: f21c 903c 8d3e c13d 0856 ad3d 7d8b ee3d
000000c0: 39dc d63d e021 1abd b4ff 2abd 8458 00be
000000d0: 3200 0f3c 88b8 93bd 68b3 d43d be2c d23b
000000e0: a740 11bd f69e b73d 9a55 223b 94b5 00bd
000000f0: d025 bd3d 0f6b 60bd bfc0 8dbd a973 c23d
00000100: 4e09 af3c bec2 9dbd 63f4 aabd bcba 41bd
00000110: 206c 81bc d7f5 033e 0a4d 5dbd 7bf0 adbd
00000120: 26a1 da3d df62 8bbd 8734 633c 4bb1 963d
00000130: 4bc1 dbbd d58b 90bd 7605 2abc e76f b43d
00000140: 978f 023d d75b ed3d 0461 eebd 3948 a33b
00000150: c55a e5bd d60c 05bd 4c29 c8bd 3f38 7cbc
00000160: 0ae3 fe3d 3f72 503d c806 39bd 2a4c 8abd
00000170: 62f9 bcbd 8a24 a4bd 1ca9 cebd a20c bc3c
00000180: 8da3 7f3d 0311 893c 816a 9ebc 3889 063d
00000190: bcf1 1fbd 3350 60bd e887 6ebd 7e9a 603d
000001a0: 6a8c 88bd 6a99 58bc c88e d2bd 0f4f 0d3d
000001b0: 368a 8c3d 3516 9b3d c05d e3bd d20c c93c
000001c0: b391 9ebd 9f2c 50bd 63cf 0dbd 2cd0 c8bd
000001d0: 7355 7d3c 6cd5 d3bc 7047 253d 4e4b 0f3d
000001e0: 99fa dabd 4e86 e53d 93f0 aa3d 2218 bb3d
000001f0: 3d49 263d f2de b43c 97a0 873d 91fd b73c
00000200: 4f6e 96bc 6500 af3d 16bf f7bd 8ade ed3c
00000210: 6831 ecbd b23d 86bd a4cd 0d3d 9b8d 413d
00000220: b831 bfbd 2072 a2bc 0369 d6bd 46e9 b73c
00000230: 7780 b43d 36b3 02bd f81e edbd 331f c9bd
00000240: adcd b5bd 782d 9f3d aa29 783d 513b 803d
00000250: 2128 98bd 99d9 80bd 22ad a83d 72fb fbbd
00000260: a67a 70bd 18a1 1cbb ea8d cf3d 429a e43d
00000270: 49f0 033d 974d 823d dc99 333d 9aa0 983d
00000280: cef3 6f3d 1a60 94bd 1f08 0c3c 28c4 b43d
00000290: e06c 93bc 998d b93d 444b bc3d 3ea1 583d
000002a0: 4863 12bd 7d7c 0bbc 22e9 ed3d 1cc6 953d
000002b0: a70d de3d 928e 7d3d ee29 9dbc 7081 643c
000002c0: 78f5 a43c 7195 4e3d 1054 273c 12a0 8a3d
000002d0: 922d c63d 87f2 6bbd af14 08bd 0d3d ed3c
000002e0: c72a df3d 26f3 6a3d 5bfb b33d a2d1 42bd
000002f0: a1c0 f53d 433d e2bd 5147 64bd c7c1 ddbd

layer3.bias f4 [3]
0.018985728 -0.013382976 -0.027643437
00000000: f587 9b3c 4544 5bbc 7d74 e2bc

skip.weight f4 [64, 66]
-0.061378684 -0.10723197 0.11470649 -0.03327202 -0.007800922 0.015608753 0.11856391 0.0071058
0.00076610426 0.068233 0.06656507 0.04293789 0.02583287 0.009495777 -0.09802366 0.1063391
-0.10370565 -0.07914621 0.024850763 -0.025816731 0.011965829 -0.04311329 -0.04284791 0.089372404
-0.06727381 0.012198842 0.068449505 -0.033681843 0.010503699 -0.017553028 -0.05026733 -0.010336682
-0.041333873 -0.05624077 -0.05015142 0.013010818 -0.0016160917 0.051345874 0.022468762 -0.06735949
-0.007994511 0.031681217 0.078868836 -0.11316061 0.026569474 -0.091160394 0.11601258 -0.074255206
0.12439937 -0.0924079 0.07932892 -0.099642515 0.078034095 -0.082625024 0.06999476 0.03886094
-0.03850816 -0.038949817 -0.049976684 -0.0029746979 0.08223948 -0.073416896 0.01602554 -0.024583373
0.09107965 0.10002427 -0.07816249 0.05174616 0.07729682 -0.06780346 -0.09973053 0.041134164
0.023005307 -0.000907287 -0.11987319 -0.042648874 0.12091702 -0.05973901 0.084004596 0.0955812
-0.035739623 0.073721334 -0.00070699304 0.047781736 0.009828791 -0.053419583 0.08621141 -0.06426248
0.038976982 0.06600475 -0.09312024 0.10447998 0.1099031 0.05395691 0.006426513 0.06898935
-0.08573778 0.06630862 -0.10931 -0.104704544 -0.08195054 0.07836056 0.06842607 0.020380601
0.02443771 0.041092128 -0.012625486 -0.09989577 0.10334644 0.061219424 0.112275034 -0.014563277
0.11629075 -0.03867551 0.004784912 -0.09377013 0.074087664 -0.0727597 -0.097464845 -0.075325206
0.038049623 0.11520682 -0.0927141 -0.105917975 0.11938819 0.03848067 0.03342408 -0.072451144
0.08467999 0.06374551 -0.10388399 0.03987229 -0.0035659298 -0.07534798 -0.009922057 -0.0067019984
0.082670465 -0.0077373013 -0.115499415 0.021489054 0.0743659 -0.048679687 0.034674928 0.06325063
0.045432746 -0.018105216 0.08120184 0.07514575 -0.04804866 -0.12102613 -0.02224829 0.06889756
-0.011294894 -0.105590716 -0.009576142 0.10863435 -0.047249205 -0.07993978 0.12286253 0.08736168
-0.043258168 0.017733604 -0.034312464 0.06805141 0.11101745 0.09543854 -0.034020707 -0.08167824
-0.024050504 0.009228066 -0.10875461 0.0032762736 0.10808851 0.10433237 -0.03691861 0.06704235
-0.025523901 -0.10339486 -0.07251763 -0.018894494 -0.078344725 -0.11477041 0.093854934 -0.06273801
-0.07027875 0.043029174 -0.021048218 0.105016634 -0.03897757 0.04374717 -0.11402539 -0.10874116
0.11688025 -0.04940138 -0.0053917766 -0.053248204 -0.09299062 0.024320513 0.098988235 -0.082385406
-0.025362246 0.110110596 -0.036840662 0.11830112 0.044523418 -0.111898854 0.10633005 0.062248692
-0.055501305 0.05117917 -0.060745914 -0.002089277 0.017435536 0.010958642 0.0848393 -0.020366833
-0.05347059 0.11537273 -0.04077483 0.09237662 0.026318565 0.060338378 0.07689059 -0.02800636
-0.0036137253 -0.09458012 0.07631776 0.10064992 0.08970854 0.12036373 0.03633155 -0.030062035
-0.0351768 -0.026043586 -0.090517774 0.00646846 0.09099899 0.11335032 -0.08583686 -0.013029024
0.07205017 0.02187407 0.07061826 0.061886787 0.117764786 -0.051608928 0.07407798 -0.005108483
0.031128317 0.019602418 -0.018363342 0.06270012 0.10230748 0.049236864 0.040248528 -0.05451949
00000000: 3768 7bbd 6f9c dbbd 3ceb ea3d 3e48 08bd
00000010: e09e ffbb dbbb 7f3c a3d1 f23d c5d7 e83b
00000020: 63d4 483a bebd 8b3d 4453 883d a4df 2f3d
00000030: 749f d33c 2d94 1b3c a1c0 c8bd 50c8 d93d
00000040: a163 d4bd 6817 a2bd d493 cb3c 9c7d d3bc
00000050: 530c 443c 9097 30bd 4a81 2fbd e108 b73d
00000060: dac6 89bd a7dd 473c 412f 8c3d f9f5 09bd
00000070: b517 2c3c 5ecb 8fbc 1ee5 4dbd 305b 29bc
00000080: b54d 29bd b95c 66bd 936b 4dbd 532b 553c
00000090: 0ad3 d3ba 0d50 523d 6910 b83c c6f3 89bd
000000a0: 69fb 02bc 2ac4 013d fc85 a13d c0c0 e7bd
000000b0: 3aa8 d93c 4db2 babd 0198 ed3d 1d13 98bd
000000c0: 19c5 fe3d 5a40 bdbd 3377 a23d 6011 ccbd
000000d0: 57d0 9f3d 4f37 a9bd 6a59 8f3d a62c 1f3d
000000e0: bbba 1dbd d889 1fbd 5ab4 4cbd 26f3 42bb
000000f0: 2c6d a83d 995b 96bd fe47 833c 1263 c9bc
00000100: f887 ba3d 86d9 cc3d a813 a0bd c8f3 533d
00000110: cc4d 9e3d 8adc 8abd 853f ccbd 4c7c 283d
00000120: a075 bc3c 00d7 6dba 1380 f5bd 96b0 2ebd
00000130: 58a3 f73d e4b0 74bd 9a0a ac3d 14c0 c33d
00000140: b663 12bd 36fb 963d 8055 39ba c8b6 433d
00000150: f008 213c 7ece 5abd 9c8f b03d 0c9c 83bd
00000160: 54a6 1f3d 802d 873d d3b5 bebd 9af9 d53d
00000170: e014 e13d ec01 5d3d 8095 d23b 4a4a 8d3d
00000180: 4a97 afbd d0cc 873d ecdd dfbd 566f d6bd
00000190: afd5 a7bd 807b a03d f822 8c3d 38f5 a63c
000001a0: 9831 c83c 3850 283d 20db 4ebc 2796 ccbd
000001b0: 4ca7 d33d 38c1 7a3d 74f0 e53d d09a 6ebc
000001c0: d829 ee3d 366a 1ebd c0ca 9c3b 8e0a c0bd
000001d0: 46bb 973d 0a03 95bd a69b c7bd 1a44 9abd
000001e0: ecd9 1b3d 8ef1 eb3d e4e0 bdbd 86eb d8bd
000001f0: cc81 f43d e89d 1d3d b0e7 083d 4461 94bd
00000200: b46c ad3d 028d 823d 21c1 d4bd 2051 233d
00000210: 60b2 69bb 0b50 9abd 2090 22bc 709c dbbb
00000220: 224f a93d 3089 fdbb f58a ecbd d009 b03c
00000230: 264d 983d 5a64 47bd 4c07 0e3d 8c89 813d
00000240: b017 3a3d 6451 94bc 264d a63d 04e6 993d
00000250: acce 44bd 8cdc f7bd 0c42 b6bc 2a1a 8d3d
00000260: 380e 39bc f23f d8bd 40e5 1cbc b07b de3d
00000270: 6288 41bd 78b7 a3bd 5a9f fb3d aeea b23d
00000280: 7a2f 31bd 1046 913c 3a8b 0cbd 8a5e 8b3d
00000290: 1e5d e33d 4875 c33d 4c59 0bbd ec46 a7bd
000002a0: 9005 c5bc 5031 173c bdba debd c0b6 563b
000002b0: 825d dd3d 36ac d53d f837 17bd 804d 893d
000002c0: 8017 d1bc afc0 d3bd 2084 94bd a0c8 9abc
000002d0: 3373 a0bd c00c ebbd 0437 c03d c97c 80bd
000002e0: 4eee 8fbd 5c3f 303d 506d acbc f612 d73d
000002f0: f2a6 1fbd 3c30 333d 2586 e9bd afb3 debd
00000300: ea5e ef3d 1a59 4abd 80ad b0bb ca1a 5abd
00000310: de71 bebd d03b c73c 58ba ca3d aeb9 a8bd
00000320: 7cc4 cfbc aa81 e13d 3ce6 16bd dc47 f23d
00000330: 305e 363d 3a2b e5bd 92c3 d93d 7cf8 7e3d
00000340: 5655 63bd 40a1 513d b5d0 78bd 40ec 08bb
00000350: f8d4 8e3c e08b 333c 3ac0 ad3d 58d8 a6bc
00000360: fa03 5bbd 8a48 ec3d 8203 27bd f42f bd3d
00000370: 089a d73c 6025 773d d078 9d3d 986d e5bc
00000380: 40d4 6cbb 39b3 c1bd 7c4c 9c3d 8c21 ce3d
00000390: 1cb9 b73d 4281 f63d 64d0 143d a844 f6bc
000003a0: 8c15 10bd 5c59 d5bc 6261 b9bd 60f5 d33b
000003b0: ae5d ba3d 3624 e83d 3ccb afbd b077 55bc
000003c0: 0a8f 933d 4031 b33c 4ea0 903d 007d 7d3d
000003d0: aa2e f13d e263 53bd 32b6 973d 1065 a7bb
000003e0: d000 ff3c 4095 a03c b86e 96bc ec68 803d
000003f0: 9686 d13d 98ac 493d a4db 243d d44f 5fbd

skip.bias f4 [64]
-0.010910676 0.043377727 0.00020910054 -0.098754786 0.10317313 0.07358606 0.050859198 -0.073117256
0.05439628 -0.034383148 -0.040781263 0.0911497 0.0074477643 -0.0061006024 -0.01966849 0.063337445
-0.0024912427 -0.059887882 0.081921004 0.12199412 0.042072296 -0.0034339107 0.06144255 0.0021733546
-0.028590454 0.08462839 -0.072756656 -0.047963172 -0.018931996 -0.049859926 -0.024784217 0.019507205
-0.03979728 -0.06495337 0.070719615 0.0011780492 -0.021171348 0.02761048 0.039556906 0.0051548523
-0.028944112 0.10253745 -0.08919205 0.023576453 0.07328445 -0.070149474 0.11985353 0.021553084
-0.09897706 -0.06109861 -0.028202446 0.04947786 -0.03985174 -0.003938146 -0.027098645 0.08910811
0.11336199 0.027816257 0.1097115 -0.08034784 -0.10001161 -0.11098981 0.12239447 -0.08897627
00000000: b1c2 32bc d8ac 313d 0042 5b39 f33f cabd
00000010: 6f4c d33d 4ab4 963d bc51 503d 80be 95bd
00000020: a2ce 5e3d 58d5 0cbd 410a 27bd b2ac ba3d
00000030: 600c f43b 90e7 c7bb d01f a1bc 10b7 813d
00000040: 1e44 23bb ff4c 75bd 33c6 a73d 0ed8 f93d
00000050: 0054 2c3d 760b 61bb 2fab 7b3d d76e 0e3b
00000060: 8736 eabc a651 ad3d 7101 95bd 0875 44bd
00000070: 4617 9bbc ec39 4cbd 4508 cbbc 93cd 9f3c
00000080: 7902 23bd 4606 85bd 72d5 903d c668 9a3a
00000090: 896f adbc 602f e23c 6c06 223d 09ea a83b
000000a0: 341c edbc 28ff d13d 52aa b6bd 6823 c13c
000000b0: 2816 963d 87aa 8fbd c475 f53d 1890 b03c
000000c0: 7cb4 cabd 8942 7abd d108 e7bc 4ca9 4a3d
000000d0: 943b 23bd 900b 81bb fafd ddbc 507e b63d
000000e0: 552a e83d ebde e33c 6cb0 e03d 698d a4bd
000000f0: e3d2 ccbd a04e e3bd f4a9 fa3d 3139 b6bd
