mukul2_model.pth (torch, 94926 bytes, 16 tensors)

layer1.weight f4 [128, 66]
0	0xbd4f3746	-0.050589822
1	0xbdbdc6d0	-0.09266436
2	0xbdef47a9	-0.1168359
3	0xbd9639a9	-0.073352166
4	0x3dab07aa	0.08351071
5	0xbdb09914	-0.08622947
6	0xbde067b6	-0.10957281
7	0x3de4bf61	0.11169315
8	0x3cf8841a	0.030336428
9	0xbaa3ccd2	-0.0012496954
10	0xbd34ff6e	-0.04418891
11	0xbd1255fb	-0.03572653
12	0x3d400d62	0.046887763
13	0x3dfeb8f2	0.12437619
14	0xbd3a5389	-0.04548982
15	0x3a8b74dd	0.0010639686
16	0x3dafc83b	0.08583113
17	0x3cbc8ef4	0.023017384
18	0x3d04033f	0.03222966
19	0x3d71fe71	0.059080545
20	0xbce22936	-0.027607542
21	0xbd8f127a	-0.06985946
22	0x3de72a92	0.112874165
23	0x3dca4411	0.09876264
24	0xbde9ea5b	-0.11421653
25	0x3d882206	0.066471145
26	0x3d0cf25b	0.034410816
27	0x3d80b13b	0.06283804
28	0x3ddc60cc	0.1076065
29	0xbce6026b	-0.028077325
30	0x3de3efd8	0.11129731
31	0xbdbd3c60	-0.09240031
32	0xbd0b81d7	-0.03405937
33	0x3c1a36bf	0.009412467
34	0xbce7ff70	-0.028320044
35	0xbd12e214	-0.035860136
36	0xbd063f37	-0.03277513
37	0xbcca1786	-0.02466942
38	0xbd13c261	-0.036074046
39	0xbd8cb048	-0.068695605
40	0xbcb8f1ff	-0.02257633
41	0xbd1598a0	-0.036522508
42	0x3db1455c	0.086558074
43	0xbd5a0080	-0.053223133
44	0xbdaee630	-0.085399985
45	0xbd2902ba	-0.041262366
46	0x3d91ec22	0.07125117
47	0x3d39c4d9	0.045353744
48	0x3d8f8053	0.07006898
49	0xbc18d1b6	-0.009327343
50	0x3d38c07b	0.04510544
51	0x3d0432af	0.0322749
52	0x3dee720a	0.11642845
53	0x3a270962	0.00063719426
54	0xbd735350	-0.059405625
55	0xbd8937bb	-0.06700083
56	0xbd062b04	-0.032755867
57	0x3d5cb0b9	0.053879473
58	0x3dd3278e	0.10310279
59	0xbdb3da5f	-0.08781885
60	0x3baaf45c	0.005217118
61	0x3d98c4d0	0.07459414
62	0x3dfb9d30	0.122858405
63	0x3da7db06	0.08196072
64	0xbdd4efe2	-0.103973165
65	0xbced20f8	-0.028946385
66	0xbdb59bba	-0.08867593
67	0xbdb1110b	-0.08645829
68	0x3db23f30	0.08703458
69	0x3d853955	0.06505076
70	0x3dcd9f25	0.1004012
71	0xbdb8ec35	-0.09029428
72	0x3d1a230b	0.037631076
73	0xbd326111	-0.0435496
74	0xbdddd67d	-0.10831926
75	0x3c74a1a9	0.014931121
76	0xbdc534f0	-0.09629238
77	0xbd3ab410	-0.045581877
78	0xbd9a81b0	-0.07544267
79	0xbcde01fb	-0.027100554
80	0x3da1a6cf	0.07893144
81	0xba7a2f79	-0.0009543817
82	0x3d3a7b46	0.04552772
83	0x3de4850e	0.11158191
84	0xbcbdae45	-0.023154387
85	0x3dedc4fc	0.116098374
86	0xbd13ea8a	-0.036112346
87	0x3cbef67a	0.023310889
88	0x3d68e581	0.056859497
89	0xbde0ea4f	-0.10982191
90	0xbd21784a	-0.039421357
91	0xbd47e9aa	-0.048806824
92	0xbd07c453	-0.033146214
93	0xbd8a7ab8	-0.06761688
94	0xbcdc0db8	-0.02686201
95	0x3d93e48a	0.07221325
96	0x3ddab98f	0.10679924
97	0xbda6ade1	-0.081386335
98	0x3d56f762	0.052482016
99	0xbddeae17	-0.10873049
100	0x3ddad949	0.10685975
101	0x3ddce8d4	0.10786596
102	0xbdc5a9f2	-0.09651555
103	0x3cff7627	0.03118427
104	0x3dcb6f0b	0.09933289
105	0x3ab31342	0.0013662355
106	0x3c7f69c8	0.015589185
107	0x3cae4810	0.021274596
108	0xbd7f28e1	-0.062294845
109	0x3d789653	0.060690235
110	0xbd971fc4	-0.07379106
111	0xbddde834	-0.10835305
112	0xbd288832	-0.04114551
113	0xbd612ff4	-0.054977372
114	0xbde0949b	-0.10965844
115	0x3df6b0af	0.120454185
116	0x3d93b554	0.0721232
117	0x3dccd58f	0.100016706
118	0x3cdf0b81	0.027227165
119	0x3d9bdae6	0.07610111
120	0x3d978441	0.07398272
121	0x3cf45bc6	0.029828917
122	0x3c331a46	0.010931557
123	0xbcac5acc	-0.02103939
124	0xbd9cac79	-0.07650084
125	0xbb3766dc	-0.0027984893
126	0x3d832a3a	0.064045385
127	0x3c57738c	0.013150107
128	0x3d1bc37c	0.038028225
129	0x3d83f028	0.064422905
130	0xbcbd9c0c	-0.023145698
131	0x3e01c0c0	0.12671185
132	0x3d2dae8f	0.0424028
133	0xbc831650	-0.01600185
134	0x3dc75c8d	0.097344495
135	0xbcfaec3d	-0.030630225
136	0x3c894cb7	0.016760213
137	0x3d74a57e	0.05972814
138	0x3de24a89	0.11049373
139	0x3c87b404	0.01656533
140	0xbd1c1029	-0.03810135
141	0xbdefd31b	-0.11710187
142	0xbd878092	-0.0661632
143	0xbc86bb00	-0.01644659
144	0x3daf6e24	0.085659295
145	0x3d1dbdd4	0.038511112
146	0xbd21bab1	-0.039484683
147	0x3c2f0800	0.01068306
148	0x3d9decd4	0.07711187
149	0xbd4e824e	-0.050417237
150	0xbc83732e	-0.016046133
151	0xbc73c76d	-0.01487909
152	0x3dbcc4e2	0.0921724
153	0xbd621fa7	-0.055205967
154	0x3d973b45	0.07384352
155	0xbdb672d0	-0.089086175
156	0x3de01ab0	0.1094259
157	0xbd992604	-0.07477954
158	0x3d87702b	0.06613191
159	0xbde1e83d	-0.11030624
160	0xbdd9d0e1	-0.106355436
161	0x3d378ffc	0.04481505
162	0xbd0fc1a6	-0.035096787
163	0xbdc2a53d	-0.09504173
164	0x3da6494d	0.0811945
165	0x3da0f1e3	0.07858636
166	0x3d331d0d	0.043728877
167	0x3da7388e	0.08165084
168	0xbd5cd269	-0.0539116
169	0x3cd6daf1	0.026227446
170	0x3c3e8e4c	0.011630606
171	0x3d49d3c9	0.04927424
172	0x3db461cc	0.08807716
173	0xbd98aeb9	-0.07455201
174	0xbdd5542e	-0.104164466
175	0xbddc67cf	-0.107619874
176	0xbd9af6b7	-0.07566588
177	0x3d2f0223	0.042726647
178	0x3d278581	0.040898804
179	0x3de23912	0.110460415
180	0xbd619d55	-0.055081684
181	0xbd95c88b	-0.07313641
182	0x3d8d3123	0.06894138
183	0x3d54313d	0.05180477
184	0xbd23761b	-0.039907556
185	0xbdf1d746	-0.11808638
186	0x3d3e0ea5	0.046400685
187	0xbd286f2b	-0.041121643
188	0x3d32f05d	0.04368626
189	0xbcbdb928	-0.023159578
190	0xbd30e8b8	-0.043190688
191	0xbdf2f7ec	-0.118636936
192	0xbcf9d5d0	-0.030497462
193	0x3dade521	0.084909685
194	0xbdc562c4	-0.09637979
195	0x3dfb8c1a	0.122825816
196	0xbde2c4f7	-0.11072724
197	0x3d5b4560	0.053532958
198	0x3d775ed3	0.060393166
199	0x3ddaed87	0.10689836
200	0x3d5e54ca	0.05428008
201	0xbd18f8aa	-0.03734652
202	0x3dd5d618	0.10441226
203	0xbd8cd048	-0.06875664
204	0x3ccf7dba	0.025328506
205	0x3c1a41bb	0.009415085
206	0x3d7eb329	0.06218258
207	0x3d071212	0.032976218
208	0xbdd23896	-0.10264699
209	0xbd85e240	-0.065372944
210	0xbdd13fed	-0.10217271
211	0xbd427156	-0.047471367
212	0xbde61460	-0.11234355
213	0x3d5691e0	0.05238521
214	0x3d25f9e6	0.040521525
215	0xbd00f7d2	-0.03148634
216	0xbd8d3a26	-0.068958566
217	0x3c58bb0a	0.013228187
218	0xbb007213	-0.0019599244
219	0x3d3abb45	0.04558875
220	0x3de7f8cf	0.11326753
221	0x3db9c20e	0.09070216
222	0xbdb82a19	-0.089924045
223	0xbd2c2be6	-0.042034052
224	0xbd17640e	-0.036960654
225	0x3dc11b3a	0.09429021
226	0x3d644f3a	0.05573962
227	0x3dc35cc7	0.0953918
228	0xbd5e9ab7	-0.054346766
229	0x3d896801	0.0670929
230	0xbc04bcc2	-0.008101644
231	0xbd1d36a4	-0.038382187
232	0xbd69f754	-0.057120636
233	0xbdb4e690	-0.08833039
234	0xbd5cecea	-0.053936876
235	0xbcf9e402	-0.03050423
236	0xbd92cbfe	-0.07167815
237	0x3de08f64	0.109648496
238	0x3dcdf177	0.100558214
239	0x3d88a444	0.06671956
240	0xbc4a3317	-0.012341282
241	0x3d1bfb09	0.038081203
242	0x3db19149	0.08670289
243	0x3ca84d4e	0.020544674
244	0xbda1ee06	-0.079067275
245	0xbdc9a291	-0.0984546
246	0x3b0edfec	0.0021800948
247	0xbd49510d	-0.04914956
248	0xbdb17364	-0.08664587
249	0x3ca52bce	0.02016249
250	0xbdd2ae5c	-0.10287163
251	0xbdee3195	-0.11630551
252	0x3dacf36e	0.08444868
253	0x3ba3ee49	0.005002771
254	0xbd4d9276	-0.050188504
255	0x3de60f76	0.11233418

layer1.bias f4 [128]
0	0xbdeea0ce	-0.11651765
1	0x3db70f18	0.08938426
2	0x3cea9d0a	0.028639335
3	0x3c7cd88a	0.015432486
4	0x3d43860f	0.04773527
5	0x3ba4091c	0.0050059687
6	0x3c9209eb	0.017826995
7	0x3d1cc5f5	0.038274724
8	0x3b5f69c4	0.003409014
9	0xbdbd873f	-0.09254312
10	0xbda821ac	-0.082095474
11	0xbdaa8cf9	-0.0832767
12	0x3de86568	0.11347467
13	0x3b2c4dde	0.002629153
14	0x3d804d5a	0.06264754
15	0xbdadddb3	-0.084895514
16	0x3cd4ae18	0.02596192
17	0x3d0ece38	0.034864634
18	0xbcb79e92	-0.02241448
19	0x3d148899	0.036263082
20	0x3d94456c	0.07239804
21	0x3d912e9c	0.07088968
22	0xbcbf8e10	-0.02338317
23	0x3c7241c3	0.014786187
24	0xbcfa9cba	-0.030592311
25	0xbda89615	-0.08231751
26	0xbdd62043	-0.10455372
27	0x3d8f34aa	0.06992467
28	0x3dac538f	0.08414375
29	0xbdd7c874	-0.1053628
30	0xbdb40566	-0.08790092
31	0xbdae5853	-0.0851294
32	0x3c9f033a	0.019410718
33	0x3ddcf36c	0.107886165
34	0xbdfc0b11	-0.12306798
35	0xbd528147	-0.05139282
36	0xbbe5df43	-0.0070151403
37	0xbda6a881	-0.08137608
38	0x3c876895	0.01652936
39	0xbde90b46	-0.11379103
40	0xbc7d18d2	-0.015447812
41	0xbdb3ee6e	-0.08785711
42	0x3d02a402	0.03189469
43	0xbd4b8c0a	-0.0496941
44	0x3dfa4e6c	0.12221989
45	0x3d9ef99e	0.077624545
46	0x3d166f4f	0.036727246
47	0x3d7386f0	0.05945486
48	0xbde7b71d	-0.11314223
49	0xbdecdf59	-0.11566038
50	0xbcfc6681	-0.030810596
51	0xbd0ebc2d	-0.034847427
52	0x3b8210ac	0.0039692726
53	0x3dd23a2e	0.10265003
54	0xbde43c73	-0.11144342
55	0x3da6336f	0.08115279
56	0xbd178d2c	-0.036999866
57	0x3c680769	0.014161923
58	0x3cafa432	0.0214406
59	0xbdd12270	-0.102116466
60	0x3cc5ac7a	0.024130095
61	0xbdb5c0a8	-0.08874637
62	0xbdfa2296	-0.12213628
63	0xbcae77b0	-0.021297306
64	0xbddfc130	-0.109255195
65	0xbda40a8c	-0.08009824
66	0x3d1b469c	0.037909135
67	0xbd95495e	-0.07289384
68	0x3caa408b	0.02078273
69	0x3d05618b	0.032563727
70	0x3c84c3b3	0.016206598
71	0xbd820e2a	-0.06350358
72	0x3da13e1b	0.07873174
73	0xbcbd8af8	-0.023137555
74	0xbd76a60e	-0.060216956
75	0x3db24481	0.08704472
76	0x3d840f41	0.06448222
77	0xbc093394	-0.008374114
78	0xbd089169	-0.0333418
79	0xbd9533b3	-0.072852515
80	0x3cc507e5	0.024051616
81	0x3d02303a	0.031784274
82	0x3d6a0082	0.05712939
83	0x3d956758	0.07295102
84	0xbdba2285	-0.09088615
85	0x3df6fbab	0.120597206
86	0x3d785504	0.060627952
87	0xbca82cd8	-0.020529196
88	0xbb83ada8	-0.004018504
89	0x3c9db56f	0.019251553
90	0x3d26abd5	0.040691216
91	0xbd102dff	-0.035200115
92	0x3cde3351	0.027124079
93	0xbd4116ad	-0.047140766
94	0x3ddb54f2	0.107095614
95	0xbd10f33c	-0.035388216
96	0x3d2cfd55	0.042233784
97	0x3d96e0d5	0.07367102
98	0xbc2f12e8	-0.01068566
99	0xbdcaf849	-0.09910638
100	0x3d320c8d	0.043469
101	0x3cd42604	0.025897034
102	0x3d697822	0.056999333
103	0x3c5b5735	0.013387491
104	0x3da969dc	0.08272144
105	0x3de2f165	0.110811986
106	0xbc84c636	-0.016207796
107	0x3d8c3feb	0.06848129
108	0x3d4c062d	0.049810577
109	0x3d98250d	0.07428942
110	0x3cc9ac29	0.024618225
111	0xbdf32ee4	-0.11874178
112	0xbd17f0a5	-0.03709473
113	0xbdf9d65c	-0.12199089
114	0x3beb83b5	0.0071873316
115	0x3da87723	0.082258485
116	0xbd9a7c09	-0.07543189
117	0xbd9a60a1	-0.07537962
118	0xbdd68e9c	-0.10476419
119	0x3daf4e23	0.08559825
120	0xbcad8f08	-0.021186367
121	0x3da3c0f4	0.07995787
122	0xbc944ce9	-0.01810308
123	0xbdbad4d0	-0.09122622
124	0xbdf350ea	-0.118806675
125	0x3d932c00	0.07186127
126	0xbdfb94f2	-0.122842684
127	0xbc0498b9	-0.008093053

bn1.weight f4 [128]
0	0x3f7ea6bf	0.99473184
1	0x3f7faca1	0.99872786
2	0x3f809082	1.00441
3	0x3f80692e	1.0032098
4	0x3f7f4b35	0.9972413
5	0x3f809405	1.0045172
6	0x3f7ec4b0	0.9951887
7	0x3f7f5a5b	0.99747247
8	0x3f80bc95	1.0057551
9	0x3f803272	1.0015395
10	0x3f7eabb9	0.9948078
11	0x3f7ef593	0.99593467
12	0x3f7f6b97	0.99773544
13	0x3f7eccab	0.9953105
14	0x3f808a39	1.0042182
15	0x3f7e8121	0.99415785
16	0x3f809773	1.0046219
17	0x3f809a79	1.0047141
18	0x3f7f6a98	0.99772024
19	0x3f7f8ebf	0.9982719
20	0x3f809fe8	1.00488
21	0x3f7f6d31	0.9977599
22	0x3f7e881a	0.99426425
23	0x3f8041e1	1.0020105
24	0x3f80b011	1.0053731
25	0x3f80ab00	1.0052185
26	0x3f8036e3	1.001675
27	0x3f7f6230	0.997592
28	0x3f7fc64e	0.99911964
29	0x3f80a745	1.0051047
30	0x3f7fd49a	0.9993378
31	0x3f7f2741	0.9966927
32	0x3f7f0e23	0.99630946
33	0x3f7e9499	0.9944549
34	0x3f801cea	1.0008824
35	0x3f801c4a	1.0008633
36	0x3f7f57b5	0.99743205
37	0x3f7f19a1	0.9964848
38	0x3f7f57c2	0.9974328
39	0x3f7f7a40	0.99795914
40	0x3f7f5360	0.99736595
41	0x3f80a236	1.0049503
42	0x3f807390	1.0035267
43	0x3f8007df	1.0002402
44	0x3f7f66e5	0.9976638
45	0x3f7ed7ed	0.99548227
46	0x3f7f0afe	0.9962615
47	0x3f8065e1	1.0031091
48	0x3f8062d7	1.0030164
49	0x3f808a7a	1.004226
50	0x3f803d97	1.0018796
51	0x3f80149f	1.0006293
52	0x3f801c7b	1.0008692
53	0x3f7fc0e3	0.99903697
54	0x3f804dd6	1.0023754
55	0x3f7ef572	0.9959327
56	0x3f803404	1.0015874
57	0x3f7f9073	0.99829787
58	0x3f80a069	1.0048953
59	0x3f80297d	1.0012661
60	0x3f803fb3	1.001944
61	0x3f7e7ed3	0.9941227
62	0x3f80524e	1.0025117
63	0x3f8002a6	1.0000808
64	0x3f801c99	1.0008727
65	0x3f8050f2	1.0024703
66	0x3f7eb1fb	0.99490327
67	0x3f7f1d9c	0.99654555
68	0x3f801670	1.0006847
69	0x3f7fa914	0.9986737
70	0x3f7ee4c6	0.9956783
71	0x3f7eb55c	0.9949548
72	0x3f80681c	1.0031772
73	0x3f80a1d0	1.0049381
74	0x3f8003e0	1.0001183
75	0x3f7f8e85	0.9982684
76	0x3f7fc97b	0.9991681
77	0x3f7f3e11	0.9970408
78	0x3f7ede4f	0.99557966
79	0x3f80a021	1.0048867
80	0x3f7efaa0	0.99601173
81	0x3f8085f9	1.0040885
82	0x3f80a7d2	1.0051215
83	0x3f7f806a	0.9980532
84	0x3f80af71	1.005354
85	0x3f808e32	1.0043395
86	0x3f7f99a2	0.998438
87	0x3f802d78	1.0013876
88	0x3f7eeaf1	0.9957724
89	0x3f7ecc99	0.9953094
90	0x3f7f14f0	0.99641323
91	0x3f80a25f	1.0049552
92	0x3f802249	1.0010463
93	0x3f7f888e	0.9981774
94	0x3f8047e9	1.0021945
95	0x3f7f6bb8	0.9977374
96	0x3f7f4b86	0.99724615
97	0x3f7fcf57	0.9992575
98	0x3f80895d	1.004192
99	0x3f7e8489	0.9942098
100	0x3f800c08	1.0003672
101	0x3f80af0b	1.0053419
102	0x3f7f84fd	0.998123
103	0x3f7ebaf0	0.99503994
104	0x3f7fa86f	0.99866384
105	0x3f807ebd	1.0038677
106	0x3f802373	1.0010818
107	0x3f80be42	1.0058062
108	0x3f7eec3f	0.9957923
109	0x3f7fa636	0.9986299
110	0x3f7ea4fd	0.994705
111	0x3f80aeed	1.0053383
112	0x3f80845f	1.0040396
113	0x3f7eaeec	0.9948566
114	0x3f808274	1.0039811
115	0x3f80a314	1.0049767
116	0x3f7f9218	0.99832296
117	0x3f7f739a	0.9978577
118	0x3f8001ba	1.0000527
119	0x3f7fcd48	0.9992261
120	0x3f802a33	1.0012878
121	0x3f80acbb	1.0052713
122	0x3f7fd462	0.99933445
123	0x3f8037da	1.0017045
124	0x3f7fe406	0.9995731
125	0x3f80211f	1.0010108
126	0x3f8076f7	1.0036305
127	0x3f80a83e	1.0051343

bn1.bias f4 [128]
0	0xbbaa6ccd	-0.0052009583
1	0xbba9c2b1	-0.0051806797
2	0x3b92f357	0.004484575
3	0x3b15cff5	0.0022859548
4	0xbab77815	-0.0013997579
5	0x3b459b93	0.0030152544
6	0xbb1cdbc5	-0.0023934704
7	0xbb595bdb	-0.0033166322
8	0x3bb5fa6f	0.0055535357
9	0x3b68ff1e	0.0035552452
10	0xbbadaee3	-0.005300389
11	0xbb1858ce	-0.002324629
12	0xb994ab1a	-0.0002835624
13	0xbb7c4602	-0.0038493876
14	0x3b7d495c	0.0038648462
15	0xbb10fc02	-0.0022122865
16	0x3b8a94ca	0.004229163
17	0x3ba74a39	0.0051052836
18	0xbb773304	-0.0037719617
19	0xbb11a687	-0.0022224502
20	0x3b9d5ff1	0.004802697
21	0xbb512ea7	-0.0031918676
22	0xbbaae7f0	-0.0052156374
23	0xbb8bee96	-0.004270385
24	0x3b09dd32	0.0021036384
25	0x3bb48691	0.0055092056
26	0x39d8fb58	0.00041385996
27	0xbaef9105	-0.0018277472
28	0x3b3f36b9	0.0029176904
29	0x39515bb0	0.0001996595
30	0x3b003200	0.0019561052
31	0xbb4a4e27	-0.0030869336
32	0xbb26f00c	-0.002547267
33	0xbb9d547f	-0.0048013325
34	0xba880823	-0.0010378401
35	0x3a2e0a50	0.000663911
36	0xbb6e9e8e	-0.0036410424
37	0xbb80fc4e	-0.003936327
38	0xbab3101d	-0.0013661418
39	0xbba0c24f	-0.004905976
40	0xba548678	-0.00081071956
41	0x3b6b0f83	0.00358674
42	0x3b478301	0.0030443075
43	0x3a05ad8e	0.0005099409
44	0xbb4234fd	-0.0029633634
45	0xbb91cb1c	-0.0044492614
46	0xbb7edd29	-0.0038889146
47	0x3b6f6aeb	0.0036532234
48	0x3b3acc7e	0.0028503234
49	0x3b7277c2	0.003699765
50	0xba107dd7	-0.00055119157
51	0x3a8fee91	0.0010981133
52	0x3a0cbdec	0.0005368877
53	0x3a08a39c	0.0005212368
54	0xba670f06	-0.00088141894
55	0xbb7c9826	-0.0038542836
56	0xbb16b019	-0.0022993146
57	0x3a88938a	0.0010419947
58	0x3a8e5a5c	0.001086067
59	0x3af95b4f	0.0019024404
60	0x3b4f813e	0.0031662728
61	0xbbba981b	-0.005694402
62	0x3a6125c0	0.0008588694
63	0x3afaa0ab	0.0019121369
64	0x3a82bbed	0.0009974219
65	0x3ad45ed2	0.0016202575
66	0xbbad91e6	-0.0052969335
67	0xbb9cb3fe	-0.004782199
68	0xbaaedc6a	-0.0013340835
69	0x3b29ea13	0.0025926873
70	0xbb3fd432	-0.0029270765
71	0xbb5c86b3	-0.0033649623
72	0x3b179d76	0.0023134626
73	0x3b91d6d9	0.0044506607
74	0x3b87ace7	0.0041404846
75	0xbb9e0321	-0.0048221503
76	0x3ae3429a	0.0017338574
77	0xbb389eb0	-0.0028170757
78	0xbac66664	-0.0015136716
79	0x3ba98267	0.005173016
80	0xbb7c4e62	-0.0038498868
81	0x3b802374	0.0039104763
82	0x3b868731	0.0041054715
83	0x3b0e2872	0.0021691588
84	0x3b7aa360	0.0038244352
85	0x3b08bdd7	0.0020865106
86	0x399de2a6	0.0003011424
87	0x3b2e622d	0.002660881
88	0xbb8b4ad9	-0.004250866
89	0xba95908f	-0.001141088
90	0xbb53e9c4	-0.003233538
91	0x3b9dd429	0.004816551
92	0x3b1b5fd9	0.0023708253
93	0x3a01a5f7	0.000494569
94	0xba14b824	-0.0005673191
95	0xbb04e636	-0.0020278818
96	0xbb24fb3b	-0.002517416
97	0xbafdb16a	-0.0019355242
98	0x3b6cdeba	0.0036143498
99	0xbbb0e988	-0.005398933
100	0xbabf6ea0	-0.0014605112
101	0x3ba7069f	0.005097225
102	0xbb10582c	-0.002202521
103	0xb9f1428a	-0.00046016678
104	0xba9bdd44	-0.0011891504
105	0xb9f78d4a	-0.0004721678
106	0xbac26d75	-0.0014833646
107	0x3b0fec77	0.0021961012
108	0xbb8e0873	-0.0043345033
109	0x39f40c3a	0.00046548416
110	0xbb9e001e	-0.0048217913
111	0x3b9fddc4	0.0048787314
112	0x3b8fe1cf	0.004390932
113	0xbbaafb56	-0.00521795
114	0x3b55235a	0.0032522292
115	0x3bb416b1	0.005495869
116	0x3975c761	0.00023439295
117	0xbb2abb87	-0.0026051716
118	0xbb72c8a9	-0.0037045872
119	0xbacaab60	-0.0015462451
120	0x3b682d66	0.003542745
121	0x3b90b658	0.0044162683
122	0xbac67ba7	-0.0015143052
123	0x3b2fd366	0.0026828884
124	0xb99b68ee	-0.00029642083
125	0x3a244c5f	0.00062674837
126	0x39213364	0.00015373301
127	0x3b9a9636	0.0047176136

bn1.running_mean f4 [128]
0	0xc2c2c8e7	-97.39239
1	0xc1618e32	-14.097216
2	0xc2d1acb2	-104.837296
3	0xc134d2a1	-11.301423
4	0xc24a3d2e	-50.559746
5	0xc2795e8b	-62.342327
6	0x40453014	3.0810595
7	0xc017dcef	-2.3728597
8	0xc11eb449	-9.919015
9	0xc2b27b30	-89.2406
10	0xc0cb90bb	-6.3614173
11	0xc29f9c88	-79.805725
12	0xc216d340	-37.7063
13	0xc01a1471	-2.4074976
14	0xc299e7ce	-76.95274
15	0x4177a0ca	15.476755
16	0x41370a87	11.44007
17	0x42176462	37.84803
18	0xc23da510	-47.411194
19	0xc2b09a74	-88.30167
20	0x422473c0	41.113037
21	0xc202b54e	-32.677055
22	0x41efbc80	29.967041
23	0xc2e0e5f9	-112.449165
24	0xc2902cac	-72.08725
25	0xc2d09be1	-104.30445
26	0x429566c6	74.70073
27	0x42aaebc3	85.46047
28	0xc2189494	-38.145096
29	0xc29f67f1	-79.70301
30	0xc1370e54	-11.440998
31	0x42eec71b	119.38888
32	0xbddc5f80	-0.10760403
33	0x424263af	48.597347
34	0x42c2e0f4	97.43936
35	0x429a9d4a	77.307205
36	0x3db0e22c	0.08636889
37	0xc2ce095d	-103.01829
38	0x42407456	48.11361
39	0x41b0db41	22.107058
40	0xc2866a58	-67.2077
41	0x42983428	76.10187
42	0xc2bc994e	-94.29942
43	0xc2bd02d3	-94.505516
44	0xc2411e5f	-48.27966
45	0xc27655f7	-61.58395
46	0x429a4360	77.13159
47	0xc2865cf4	-67.18155
48	0x42c2d83d	97.42234
49	0xc237eb22	-45.97962
50	0x423deea6	47.483055
51	0x42bb073e	93.514145
52	0x41c4d2de	24.602962
53	0xc2532bb0	-52.792664
54	0x429a6534	77.19766
55	0x41d8b6c1	27.089235
56	0x42bcaa66	94.33281
57	0xc211ad29	-36.4191
58	0x40b12a3b	5.536405
59	0xc2dc57d6	-110.171555
60	0xc109c7ea	-8.611307
61	0xc2156a86	-37.354027
62	0x42602812	56.03913
63	0x429bf3c5	77.97611
64	0x4214397c	37.056137
65	0x42ce41dc	103.12863
66	0xc1c19810	-24.19925
67	0x42536749	52.850864
68	0x42cc55fb	102.16793
69	0xc2a2d580	-81.41699
70	0xc2a79403	-83.789085
71	0x421b5775	38.835407
72	0x4287f1be	67.97215
73	0x42f00842	120.01613
74	0xc261024f	-56.252254
75	0xc19f3be8	-19.904251
76	0xc2b84808	-92.140686
77	0xc094ff3b	-4.656156
78	0x42beac14	95.33609
79	0xc27f19f2	-63.775337
80	0x41adcc00	21.72461
81	0x418159ce	16.16885
82	0x4280aea3	64.34109
83	0x42020675	32.506306
84	0xc2a215d9	-81.04267
85	0x42b39704	89.79495
86	0xc2a1e69e	-80.950424
87	0xc2ccea30	-102.4574
88	0xc1fab545	-31.33851
89	0xc1c289d4	-24.317299
90	0xc2a0a8a5	-80.329384
91	0xc2b87f79	-92.24897
92	0x42a51a4e	82.55138
93	0xc26117d2	-56.273262
94	0xc2bb01f8	-93.503845
95	0x41a9c396	21.2205
96	0xc0c17e3f	-6.046661
97	0x4270a750	60.16339
98	0x40d3d0a3	6.6192183
99	0x42d7217f	107.56542
100	0xc12cc640	-10.798401
101	0xc28c4e3f	-70.152824
102	0x42c6e88e	99.45421
103	0xc28bc996	-69.89372
104	0xc2a596a0	-82.79419
105	0xc277f84e	-61.992485
106	0x42929f22	73.31081
107	0xc205f617	-33.490322
108	0x41341118	11.254173
109	0x42a63efb	83.12301
110	0x423964f8	46.348602
111	0xc22d2c40	-43.293213
112	0xc2a4e901	-82.455086
113	0xc2e01330	-112.037476
114	0xc25275c3	-52.615
115	0xc14a5fe6	-12.648413
116	0x42280df2	42.01362
117	0x4240277e	48.038567
118	0xc28e6ed1	-71.21644
119	0x428df3d4	70.97623
120	0xc263079e	-56.75744
121	0x42a9f758	84.98309
122	0x41660b71	14.377793
123	0xc28a3b1b	-69.11544
124	0x42b2b970	89.36218
125	0x42d42e0e	106.08995
126	0xc230bbd2	-44.18342
127	0x428255e1	65.16773

bn1.running_var f4 [128]
0	0x45249223	2633.1335
1	0x434802d6	200.01108
2	0x4530508c	2821.0342
3	0x420a7d1a	34.62217
4	0x43e4d271	457.64407
5	0x44b4b682	1445.7034
6	0x422b185f	42.7738
7	0x432ef1a7	174.94395
8	0x4253cc73	52.949657
9	0x455b4521	3508.3206
10	0x42fafe1a	125.49629
11	0x44ebd6be	1886.7107
12	0x43906b12	288.8365
13	0x4377d336	247.82504
14	0x44894940	1098.2891
15	0x42c2603b	97.18795
16	0x42acc5f3	86.38662
17	0x44118e82	582.2267
18	0x44a07da3	1283.9261
19	0x451d245a	2514.272
20	0x44087ead	545.9793
21	0x43c40d9e	392.10638
22	0x43c71edc	398.2411
23	0x452b5e8f	2741.91
24	0x448788cf	1084.2753
25	0x451789d1	2424.6135
26	0x4526b9d0	2667.6133
27	0x45079732	2169.4497
28	0x449184cd	1164.15
29	0x4500252a	2050.3228
30	0x42bc03df	94.00756
31	0x455ab07c	3499.0303
32	0x42817345	64.725136
33	0x44b15c20	1418.8789
34	0x4586d576	4314.6826
35	0x448df3b9	1135.6163
36	0x4080f378	4.0297203
37	0x4510ccea	2316.8071
38	0x445969da	869.65393
39	0x43f0b58f	481.41843
40	0x4474cbc4	979.18384
41	0x4527c01c	2684.0068
42	0x456182f5	3608.1848
43	0x44cb0132	1624.0374
44	0x4467494b	925.1452
45	0x4449f6e5	807.8577
46	0x4539c6b0	2972.418
47	0x44dcf6cf	1767.7128
48	0x45137ec3	2359.9226
49	0x43a98f62	339.12018
50	0x43a637cc	332.4359
51	0x44d5f782	1711.7346
52	0x436ce274	236.88458
53	0x448325ea	1049.1848
54	0x4530b65e	2827.398
55	0x4407de6b	543.4753
56	0x4506d722	2157.4458
57	0x43d89f55	433.24478
58	0x42bfce28	95.90265
59	0x45619979	3609.592
60	0x41744b64	15.268406
61	0x43ac99a6	345.20038
62	0x448207a8	1040.2393
63	0x451606b6	2400.4194
64	0x4388e162	273.7608
65	0x44cf37f0	1657.748
66	0x43a145ac	322.5443
67	0x44bda2d1	1517.088
68	0x452b2bea	2738.7446
69	0x44984f62	1218.4807
70	0x4521290f	2578.5662
71	0x440a3d2e	552.95593
72	0x45004295	2052.1614
73	0x453f1b40	3057.7031
74	0x443545a3	725.0881
75	0x41942b65	18.521189
76	0x4515e73c	2398.4521
77	0x417a2d07	15.635993
78	0x454e6e9e	3302.9136
79	0x4472dc13	971.43866
80	0x42a060dd	80.189186
81	0x42e6f72d	115.482765
82	0x44f45ee4	1954.9653
83	0x44665dc7	921.4653
84	0x450d042f	2256.2615
85	0x450fc61f	2300.3826
86	0x44942f6e	1185.4822
87	0x455cc8d2	3532.5513
88	0x43a5db9a	331.71564
89	0x434ea426	206.6412
90	0x44944ddc	1186.4331
91	0x453afd50	2991.832
92	0x453d9f5f	3033.9607
93	0x444f2a1a	828.65784
94	0x45102a9f	2306.6638
95	0x429faf5b	79.84249
96	0x402b66e8	2.678156
97	0x44e7f30a	1855.595
98	0x408fc69e	4.4929953
99	0x4588e91d	4381.139
100	0x409f99b9	4.987515
101	0x44e3d14a	1822.5403
102	0x4553cf0c	3388.9404
103	0x44f8cb55	1990.3541
104	0x44c1ab29	1549.3488
105	0x440fb0b1	574.7608
106	0x44246c1b	657.68915
107	0x433e704b	190.43864
108	0x40f1ba95	7.554026
109	0x451f41c2	2548.1099
110	0x4421b9ae	646.90125
111	0x4415cc48	599.1919
112	0x44ae3c9c	1393.894
113	0x456f6af0	3830.6836
114	0x441a13ff	616.31244
115	0x41fd04ee	31.627407
116	0x443388bb	718.1364
117	0x448a42bc	1106.0854
118	0x450bb24b	2235.1433
119	0x448c7314	1123.5962
120	0x44188b80	610.1797
121	0x44f8c4dd	1990.152
122	0x4394a1aa	297.263
123	0x4470b300	962.7969
124	0x453f6c2f	3062.7615
125	0x4579b01f	3995.0076
126	0x446e9491	954.32135
127	0x44ab4d20	1370.4102

layer2.weight f4 [64, 128]
0	0x3d92f17a	0.07174964
1	0xbc4cd5a2	-0.012502106
2	0x3da62fe0	0.081146
3	0x3b977285	0.004621806
4	0x3d3673b7	0.044543948
5	0xbd8dd1d4	-0.06924787
6	0x3d87867e	0.06617449
7	0xbd1c6657	-0.038183536
8	0x3c9ba355	0.018998781
9	0x3d82e471	0.06391228
10	0xbd6a7302	-0.057238586
11	0x3be716c4	0.0070522744
12	0x3c906b31	0.017629238
13	0xbd87d558	-0.06632489
14	0xbdad9e7a	-0.08477493
15	0xbd4ad1d1	-0.049516503
16	0x3ce683c3	0.028139
17	0xbb89ae64	-0.004201697
18	0x3d8edc4a	0.069756106
19	0x3d8e3fd5	0.06945769
20	0x3c622ced	0.013804656
21	0x3da4f728	0.08054954
22	0xbd9e55e4	-0.07731226
23	0x3ae94d22	0.0017799477
24	0xbd709237	-0.05873319
25	0x3cc1ad90	0.023642331
26	0x3d37e125	0.04489245
27	0x3da27748	0.07932907
28	0xbd0a5dd8	-0.033780903
29	0xbd8774f4	-0.06614104
30	0xbd82a228	-0.06378585
31	0xbc81eee4	-0.015860982
32	0x3d1a583f	0.037681814
33	0xbda2b703	-0.07945063
34	0x3c8534d4	0.016260542
35	0x3cbd766d	0.023127759
36	0xbd64c539	-0.05585215
37	0xbdb5f2b7	-0.08884185
38	0xbc16a93b	-0.009195621
39	0x3cd2f8e0	0.025753438
40	0x3da81db7	0.08208793
41	0xbd81c0ed	-0.06335626
42	0x3d4f4972	0.050607152
43	0x3cc5a48c	0.024126314
44	0xbdb28153	-0.08716073
45	0x3d67fdf8	0.056638688
46	0xbd0604ed	-0.03271954
47	0x3c81ec85	0.015859852
48	0x3d6cc103	0.057801258
49	0xbdb3360b	-0.08750542
50	0xba204671	-0.0006114012
51	0xbca16776	-0.019702654
52	0xbc330763	-0.010927054
53	0xbb9dfce6	-0.0048214076
54	0x3c0fc6f7	0.008775464
55	0xbb0d99e9	-0.002160663
56	0xbd00218e	-0.031282
57	0x3d9d4b78	0.0768041
58	0x3d2160d4	0.039398983
59	0xbc1a66e0	-0.009423941
60	0xbd36865b	-0.044561725
61	0xbae66a94	-0.001757937
62	0xbd23f9af	-0.04003304
63	0xbd6f80b3	-0.058472347
64	0xbdb3c185	-0.08777145
65	0xbb31c3f9	-0.0027124865
66	0xbbdcd13f	-0.0067388113
67	0x3cdfe205	0.027329454
68	0x3c6d9a14	0.014502067
69	0x3d5d94dc	0.05409704
70	0x3cd5610e	0.026047256
71	0x3c07c5b7	0.008286885
72	0x3d518577	0.051152673
73	0x3da04b78	0.078268945
74	0xbdb02c2e	-0.086021766
75	0x3ca44194	0.020050801
76	0xbd0aa5c6	-0.0338495
77	0xbc39c65f	-0.011338799
78	0xbd78ae9e	-0.060713403
79	0x3da0d659	0.078533836
80	0xbda3dc24	-0.08000973
81	0xbd632047	-0.055450704
82	0xbd5cb3b2	-0.05388231
83	0xbd93941d	-0.07205985
84	0x3d87de4f	0.06634199
85	0xbba62000	-0.0050697327
86	0x3d38fada	0.045161106
87	0x3d05a7b3	0.032630634
88	0xbabf6808	-0.0014603147
89	0x3d068cd4	0.032849148
90	0xbd38de56	-0.04513391
91	0x3d4017e3	0.04689778
92	0x3db1ee5c	0.086880416
93	0x3cdab4e1	0.026697578
94	0x3d64e87d	0.05588578
95	0x3da1db5b	0.07903167
96	0x3d0491da	0.032365657
97	0xbd733332	-0.059374996
98	0x3d3281c0	0.04358077
99	0xbd6ffacf	-0.0585888
100	0xbcf37183	-0.029717213
101	0x3cba91ca	0.022774596
102	0x3d7d9a5b	0.061914783
103	0xbc9fbb3e	-0.019498464
104	0x3c03dc0a	0.008048067
105	0xbd0187c2	-0.03162361
106	0x3d27c24b	0.040956777
107	0x3cccbf26	0.02499349
108	0x3d937639	0.072002836
109	0x3c337bb0	0.010954782
110	0x3ce89bba	0.028394569
111	0x3da6055f	0.08106493
112	0x3d53e11d	0.051728357
113	0xbda364f1	-0.079782374
114	0xbc8cb6fd	-0.0171771
115	0xbd9580a9	-0.072999306
116	0x3cfd2e9d	0.030906016
117	0xbdbcb32c	-0.09213862
118	0x3d794d9b	0.060865026
119	0xbdb187fa	-0.086685136
120	0xbc684094	-0.014175553
121	0xbd97a1aa	-0.07403882
122	0xbd0fb22c	-0.035082027
123	0xbc620d90	-0.013797179
124	0xbd828050	-0.0637213
125	0xbd434903	-0.04767705
126	0x3d804d4e	0.06264745
127	0x3c9f62db	0.019456318
128	0x3dbd3af2	0.092397586
129	0x3d478006	0.048706077
130	0x3d985867	0.074387364
131	0xbcff63d3	-0.03117553
132	0xbd8fff48	-0.07031113
133	0x3cc32320	0.02382046
134	0x3d6212c4	0.055193678
135	0x3c80d832	0.01572809
136	0xbdaa943d	-0.083290555
137	0x3d80b20b	0.06283959
138	0x3cd01a3b	0.025403133
139	0x3d834701	0.06410027
140	0x3d2b4ae5	0.041819472
141	0xbcb4b437	-0.02205859
142	0x3d25837b	0.040408593
143	0x3ce98aa3	0.02850849
144	0x3d8b2f6a	0.06796153
145	0x3d947474	0.07248774
146	0xbd8f4672	-0.06995858
147	0xbda0af6c	-0.07845959
148	0x3bb10b72	0.0054029757
149	0xbca1da92	-0.019757543
150	0xbd9d37bd	-0.07676647
151	0x3d197fc5	0.037475366
152	0x3da4191d	0.080126025
153	0xbd831de6	-0.06402187
154	0xbd01635f	-0.03158891
155	0xbca27e8e	-0.019835737
156	0xbce6e352	-0.028184567
157	0x3d15a2f9	0.036532376
158	0x3d3d6e60	0.04624784
159	0xbd9f5e9f	-0.077817194
160	0x3d956d60	0.07296252
161	0xbd706db0	-0.058698356
162	0xbd10152b	-0.035176437
163	0x3d390e97	0.04517993
164	0x3d57cd42	0.052685983
165	0xbd144f70	-0.03620857
166	0x3c6fdb4d	0.014639688
167	0xbb9931db	-0.0046751327
168	0xbac7480e	-0.0015203969
169	0xbd01ff3b	-0.031737547
170	0xbccecd95	-0.025244514
171	0x3d41cad0	0.047312558
172	0xbdac1d72	-0.08404054
173	0x3cb27bdd	0.021787578
174	0xbd8cee21	-0.06881357
175	0xbc98e3c7	-0.0186633
176	0xbd6e50f4	-0.05818267
177	0x3d914b08	0.07094389
178	0x3d6ccb31	0.057810966
179	0x3d2f19e5	0.042749304
180	0x3d7249d0	0.059152424
181	0x3db420b0	0.08795297
182	0xbd98485d	-0.07435677
183	0xbdb27d49	-0.087153025
184	0xbc81cfa4	-0.015846081
185	0x3d9336f8	0.07188219
186	0xbae18de3	-0.0017208423
187	0x3d63c883	0.055611145
188	0x3d657b5b	0.056025844
189	0x3d27223e	0.04080414
190	0xbd9b0ba5	-0.075705804
191	0xbd46a029	-0.048492584
192	0xbd67cb1a	-0.056590177
193	0x3d992656	0.07478015
194	0x3d65ef93	0.05613668
195	0x3c87a420	0.016557753
196	0x3d1a0ca3	0.037609708
197	0x3bfef8b1	0.007781111
198	0xbd2ca34e	-0.042147927
199	0xbcc11205	-0.023568163
200	0x3b89ed2c	0.0042091813
201	0x3d5dbec3	0.054137003
202	0x3d9b4325	0.07581166
203	0xbd07d423	-0.033161294
204	0x3d692bb5	0.056926448
205	0x3d73b8f9	0.059502576
206	0x3d2f9ba6	0.042873047
207	0xbd831662	-0.064007536
208	0x3d905dd5	0.07049147
209	0xbd7ab3bb	-0.06120656
210	0xbdb56a20	-0.08858132
211	0x3ca3448e	0.01993015
212	0x3d7d65e4	0.06186475
213	0x3d387e09	0.04504207
214	0xbd115e05	-0.035490055
215	0x3da3ad83	0.07992079
216	0x3d979a93	0.074025296
217	0xbd532939	-0.051552985
218	0xbce694fb	-0.028147211
219	0xbdb3d270	-0.08780372
220	0xbd19169b	-0.037375074
221	0x3da18e85	0.078885116
222	0xbcb1bfc4	-0.021697886
223	0xbd61b59f	-0.055104848
224	0x3da96fde	0.0827329
225	0xbdb55311	-0.08853734
226	0x3d99cdd2	0.0750996
227	0x3bd795f7	0.0065791565
228	0xbda8d635	-0.08243982
229	0xbc6b901c	-0.01437762
230	0x3c9204c2	0.017824534
231	0x3d022ea7	0.031782772
232	0xbd0b5532	-0.034016795
233	0x3db1e4c1	0.086862095
234	0xbca46d55	-0.020071665
235	0x3b39c34f	0.0028345173
236	0xbd21205e	-0.03933751
237	0x3d32decc	0.043669507
238	0x3cb3ee74	0.02196429
239	0x3d6e69d2	0.058206387
240	0x3c9af9f7	0.01891802
241	0x3daf903b	0.08572432
242	0x3d764097	0.06012019
243	0xbdb5e612	-0.08881773
244	0xbd440988	-0.047860652
245	0x3d5e8515	0.054326136
246	0x3d6d9f3a	0.05801318
247	0x3d04a185	0.0323806
248	0x3c047f41	0.00808698
249	0xbdb56eb9	-0.08859009
250	0x3d813514	0.06308952
251	0x3d9d4739	0.076796
252	0x3daa40d1	0.08313144
253	0xbdaff04e	-0.08590756
254	0x3d923c16	0.07140367
255	0x3cbb65ec	0.022875749

layer2.bias f4 [64]
0	0xbd93331e	-0.07187484
1	0x3bc8288b	0.0061083487
2	0x3da40fca	0.08010824
3	0x3d9ff0f4	0.0780963
4	0xbd939fae	-0.07208191
5	0x3cf3fba8	0.029783085
6	0x3d71497f	0.058907982
7	0x3da25dab	0.07928022
8	0xbdaff4b7	-0.085915975
9	0xbd9c517b	-0.07632729
10	0xbc072777	-0.008249155
11	0x3c544438	0.012955718
12	0x3d7c52dd	0.061602462
13	0x3cedbda9	0.029021101
14	0x3d2e52c5	0.042559404
15	0x3cbefb34	0.023313142
16	0xbd253f99	-0.040343855
17	0x3d91be6d	0.07116399
18	0x3cca49e2	0.024693433
19	0xbd5b27a8	-0.053504616
20	0xbd2cbf0d	-0.042174388
21	0x3be92180	0.007114589
22	0x3d33ea9d	0.043924917
23	0x3daf1b79	0.08550162
24	0xbc8c12c4	-0.017098792
25	0x3d6c83d3	0.057742905
26	0x3d88b18e	0.06674491
27	0xbdb4f9bd	-0.08836696
28	0xbd282f47	-0.041060712
29	0xbda50b45	-0.0805879
30	0x3d9bcfa8	0.07607967
31	0xbb799d85	-0.0038088274
32	0x3d0bad6f	0.034100946
33	0xbd5e1f2b	-0.054228943
34	0x3d543ecf	0.05181771
35	0xbd750944	-0.05982329
36	0x3db227b7	0.08698981
37	0xbd4e8546	-0.05042007
38	0xbda5f2c9	-0.08102948
39	0xbcfd73b7	-0.030938966
40	0xbd22dd90	-0.03976208
41	0xbd969551	-0.073526986
42	0xbc42bd37	-0.011885933
43	0xbd90416e	-0.0704373
44	0xbcaac147	-0.020844115
45	0xbc96cac4	-0.018407233
46	0x3d787d83	0.060666572
47	0x3cd6d4d9	0.02622454
48	0x3bac8484	0.0052648205
49	0xbcd1deff	-0.025619028
50	0xbd333a92	-0.04375703
51	0x3d25ce8c	0.04048018
52	0x3c8d948d	0.017282749
53	0x3d93c383	0.07215025
54	0x3d80088c	0.0625163
55	0xbd77bae9	-0.060480986
56	0x3d721f55	0.05911191
57	0xbdb3c7c1	-0.087783344
58	0x3d13be1c	0.036069974
59	0xbda7af83	-0.08187773
60	0x3b87e37a	0.0041469904
61	0xbd3e0584	-0.04639198
62	0xbdae5efa	-0.08514209
63	0x3d8b1706	0.06791501

bn2.weight f4 [64]
0	0x3f7f0737	0.99620384
1	0x3f80a750	1.005106
2	0x3f808488	1.0040445
3	0x3f7edfed	0.99560434
4	0x3f806543	1.0030903
5	0x3f80c287	1.0059365
6	0x3f7e957c	0.99446845
7	0x3f7f03a8	0.99614954
8	0x3f807345	1.0035177
9	0x3f7e9a24	0.9945395
10	0x3f7ffdaa	0.99996436
11	0x3f7e8c51	0.99432856
12	0x3f7eb7c9	0.99499184
13	0x3f7e9320	0.99443245
14	0x3f808859	1.004161
15	0x3f7eb04a	0.99487746
16	0x3f7ebb67	0.99504703
17	0x3f7e9c68	0.99457407
18	0x3f7ea591	0.99471384
19	0x3f802864	1.0012326
20	0x3f7fbce0	0.99897575
21	0x3f7ec219	0.9951492
22	0x3f7e82b6	0.994182
23	0x3f803702	1.0016787
24	0x3f80b3e1	1.0054895
25	0x3f808d8c	1.0043197
26	0x3f7eedc5	0.9958156
27	0x3f7ec20b	0.99514836
28	0x3f800685	1.000199
29	0x3f80b416	1.0054958
30	0x3f80b270	1.0054455
31	0x3f80927e	1.0044706
32	0x3f80a045	1.004891
33	0x3f7ea9ea	0.9947802
34	0x3f7e89ef	0.9942922
35	0x3f7ec4b2	0.99518883
36	0x3f7ec2cf	0.99516004
37	0x3f7ff79d	0.999872
38	0x3f7e8a3b	0.9942967
39	0x3f7eb4b3	0.99494475
40	0x3f7ec8aa	0.9952494
41	0x3f80913b	1.0044321
42	0x3f80ab74	1.0052323
43	0x3f7ea293	0.9946682
44	0x3f80b889	1.0056316
45	0x3f806828	1.0031786
46	0x3f7f15ed	0.9964283
47	0x3f80bade	1.0057027
48	0x3f7e88c3	0.9942743
49	0x3f7eff69	0.99608475
50	0x3f7eb03a	0.9948765
51	0x3f7ebc9e	0.99506557
52	0x3f80b577	1.0055379
53	0x3f7f7635	0.99789745
54	0x3f80a71f	1.0051001
55	0x3f80a050	1.0048923
56	0x3f80a7ab	1.0051168
57	0x3f80b6f9	1.0055839
58	0x3f80ab7b	1.0052332
59	0x3f8008bb	1.0002664
60	0x3f7f9ee8	0.99851847
61	0x3f809d55	1.0048014
62	0x3f7ed3af	0.99541754
63	0x3f802021	1.0009805

bn2.bias f4 [64]
0	0xbb514b47	-0.0031935738
1	0x3ba2e66d	0.0049713165
2	0xbb08d98e	-0.0020881626
3	0xbb9d0060	-0.0047913045
4	0x3b1b5b26	0.0023705452
5	0x3bbaf57e	0.0057055345
6	0xbbbd7beb	-0.0057825944
7	0xbb96e81d	-0.004605307
8	0x3b8f2d82	0.0043694386
9	0xbbb33934	-0.0054694656
10	0xbb82f3ec	-0.003996363
11	0xbbb52f03	-0.005529286
12	0xbb9f9859	-0.004870456
13	0xbbb2b5fc	-0.005453823
14	0x3b912c44	0.0044303257
15	0xbba885cf	-0.0051429044
16	0xbba7210a	-0.005100374
17	0xbb9f1672	-0.0048549706
18	0xbbb36eb0	-0.0054758415
19	0x3ae0f713	0.0017163478
20	0xbb16b38b	-0.00229952
21	0xbbae2f8a	-0.0053157257
22	0xbbb21b9c	-0.00543542
23	0x3b9ad18c	0.004724687
24	0x3bb142e2	0.0054095844
25	0x3b8567ca	0.0040712105
26	0xbba4369c	-0.0050113928
27	0xbb90a3a0	-0.004414037
28	0x3b8ed970	0.0043594167
29	0x3b8d795b	0.004317445
30	0x3bbd258a	0.0057722973
31	0x3bb177e2	0.0054159025
32	0x3bb1feb6	0.0054319752
33	0xbba13f90	-0.0049209073
34	0xbbb3e60e	-0.005490071
35	0xbba03e24	-0.0048902202
36	0xbba0a7c7	-0.004902813
37	0xbb5edbab	-0.0034005444
38	0xbbb4dc4f	-0.005519427
39	0xbbaaa6bf	-0.005207866
40	0xbba8457f	-0.0051352377
41	0x3b866b29	0.00410213
42	0x3bba6c78	0.0056892
43	0xbbb65ab3	-0.0055650114
44	0x3bb7af58	0.0056056194
45	0x3b7cb6a6	0.0038561015
46	0xbb8d2dd2	-0.0043084407
47	0x3bb5d90e	0.0055495566
48	0xbbb880c4	-0.0056305844
49	0xbabb198d	-0.0014274582
50	0xbbb7d89c	-0.0056105386
51	0xbb31152c	-0.0027020676
52	0x3bbf237b	0.005833087
53	0xba1b449c	-0.00059230044
54	0x3bbbef08	0.005735282
55	0x3ba7df30	0.0051230416
56	0x3aa5a388	0.0012637237
57	0x3bb5db8d	0.005549854
58	0x3b9ca4a5	0.0047803693
59	0x3b89aa68	0.004201222
60	0x3ab42fca	0.0013747152
61	0x3b9baae2	0.0047505954
62	0xbb8bb885	-0.00426394
63	0x3b9c94f8	0.0047785006

bn2.running_mean f4 [64]
0	0xbc8a7394	-0.016900815
1	0x3e61ccef	0.22050832
2	0x3c8a55c1	0.016886594
3	0x3db588b5	0.088639654
4	0xbdb411c3	-0.0879245
5	0x3de19bb6	0.11016028
6	0x3d9c75fe	0.07639693
7	0xbd8a0d74	-0.06740847
8	0xbecb611f	-0.39722535
9	0xbe88185a	-0.2658108
10	0xbe0c011c	-0.13672298
11	0xbda2a737	-0.0794205
12	0xbd66f1db	-0.056382995
13	0x3d3e5bca	0.046474256
14	0x3e0e082d	0.13870306
15	0x3da41886	0.0801249
16	0xbd5ea794	-0.054359034
17	0xbe27d248	-0.1638881
18	0x3e83a21d	0.2570962
19	0xbdfc20ad	-0.1231092
20	0x3d43aabe	0.047770254
21	0xbe1733c5	-0.14765842
22	0x3e984d1c	0.2974633
23	0x3e895c4a	0.26828223
24	0xbd4ad650	-0.04952079
25	0xbd3499d1	-0.044092003
26	0xbe213abe	-0.15745065
27	0x3df2392b	0.1182731
28	0x3cbe254c	0.023211144
29	0x3bdb96eb	0.0067013404
30	0xbda745cc	-0.081676096
31	0xbda578dd	-0.080796935
32	0xbd805ab2	-0.06267299
33	0xbe126317	-0.14295612
34	0x3ed2b45a	0.41153222
35	0x3e836494	0.25662673
36	0x3c94670d	0.018115545
37	0xbddaa173	-0.10675325
38	0xbc2967d0	-0.010339692
39	0xbc422054	-0.011848528
40	0xbdedd1db	-0.116122924
41	0xbe0960c6	-0.13415822
42	0xbdc1dea7	-0.09466296
43	0xbe5517d5	-0.20809872
44	0x3e1f1502	0.15535358
45	0xbded8ba1	-0.11598898
46	0x3db18d01	0.086694725
47	0x3da0344c	0.07822475
48	0x3e87a528	0.26493192
49	0xbae4a6dc	-0.0017444748
50	0x3b94ff6c	0.00454705
51	0xbcb5a16c	-0.022171699
52	0x3dd335be	0.10312985
53	0xbe3df5de	-0.18550822
54	0x3df40166	0.11914329
55	0x3cb30288	0.021851793
56	0x3e3a1949	0.18173708
57	0x3e748969	0.23880543
58	0x3dcc23ec	0.09967789
59	0x3d6646db	0.056219917
60	0xbd79dc82	-0.06100131
61	0xbd2545ad	-0.04034965
62	0xbd4a719a	-0.049424745
63	0x3d0dcc3c	0.0346186

bn2.running_var f4 [64]
0	0x3f566026	0.8374046
1	0x3f50c522	0.815508
2	0x3f15fbf6	0.58587587
3	0x3f1d85f5	0.6153253
4	0x3f0f551a	0.5598923
5	0x3f3000a7	0.68750995
6	0x3f11bf63	0.5693266
7	0x3f11f277	0.57010597
8	0x3f28b79c	0.65905166
9	0x3f3d75a9	0.7400766
10	0x3f15e9e1	0.58559996
11	0x3f169dfc	0.58834815
12	0x3f102132	0.5630065
13	0x3f23d1b9	0.63991886
14	0x3f1fb539	0.623859
15	0x3f1ad809	0.60485893
16	0x3f17ef77	0.5934977
17	0x3f1cc562	0.6123868
18	0x3f1a166c	0.60190463
19	0x3f15b65f	0.584814
20	0x3f18e02b	0.59717053
21	0x3f222cf1	0.63349825
22	0x3f2aff4d	0.6679581
23	0x3f3c524c	0.73563075
24	0x3f131634	0.57455754
25	0x3f12a0b5	0.5727647
26	0x3f189d06	0.596146
27	0x3f181e52	0.59421265
28	0x3f0ffef6	0.56248415
29	0x3f11fe8d	0.5702904
30	0x3f1ff23a	0.62478983
31	0x3f15980c	0.5843513
32	0x3f15b3e6	0.5847763
33	0x3f42662a	0.7593714
34	0x3f2c2ed2	0.6725894
35	0x3f292220	0.66067696
36	0x3f13de73	0.57761306
37	0x3f12fb1e	0.57414424
38	0x3f2edcd0	0.68305683
39	0x3f117807	0.5682377
40	0x3f1984c2	0.599682
41	0x3f159dad	0.5844372
42	0x3f113cd4	0.5673344
43	0x3f1be323	0.6089346
44	0x3f2bd4a9	0.6712137
45	0x3f154ed0	0.58323383
46	0x3f12a21c	0.5727861
47	0x3f29058a	0.66024077
48	0x3f1f8947	0.62318844
49	0x3f1336ce	0.575055
50	0x3f118962	0.56850255
51	0x3f112474	0.5669625
52	0x3f12f691	0.5740748
53	0x3f230af2	0.63688576
54	0x3f1eeb3c	0.6207769
55	0x3f1839c9	0.59463173
56	0x3f3e0157	0.74220794
57	0x3f1c8412	0.61139023
58	0x3f28f120	0.6599293
59	0x3f192a04	0.59829736
60	0x3f187126	0.5954765
61	0x3f115edc	0.5678537
62	0x3f16fb06	0.5897678
63	0x3f10bfb4	0.56542516

layer3.weight f4 [4, 64]
0	0xbc404a20	-0.011736423
1	0xbd1f6585	-0.038915176
2	0xbd88e8a5	-0.066849984
3	0x3d90f7c5	0.07078508
4	0x3d9f12b2	0.07767238
5	0x3da23740	0.07920694
6	0x3cc193d1	0.023630055
7	0xbc287ead	-0.010284108
8	0x3ddde5c0	0.10834837
9	0xbd725ff5	-0.059173543
10	0x3dcc576c	0.09977612
11	0xbdd30b13	-0.103048466
12	0x3d9be9ca	0.07612951
13	0x3d9c2f4f	0.07626211
14	0xbd91ab25	-0.07112721
15	0x3d60d18d	0.054887343
16	0xbd3e7d40	-0.046506166
17	0xbd8adbea	-0.067802265
18	0x3d83405a	0.064087585
19	0x3d0a8d71	0.033826295
20	0xbdd763b5	-0.105170645
21	0xbdcb6f78	-0.0993337
22	0xbdd05428	-0.101723015
23	0x3db22a83	0.08699515
24	0xbdfb976c	-0.12284741
25	0xbde5f1e2	-0.11227776
26	0xbde1423a	-0.1099896
27	0x3d29220a	0.041292228
28	0xbdda27fd	-0.106521584
29	0x3c3c6da3	0.011500749
30	0xbd3b30f0	-0.045700967
31	0x3d5b6964	0.053567305
32	0xbcb4bddc	-0.022063188
33	0xbd0c1710	-0.03420168
34	0xbdca526e	-0.098790035
35	0x3d3977d5	0.045280296
36	0xbb0ff88a	-0.002196821
37	0xbd858a85	-0.06520561
38	0xbdcc7f72	-0.09985246
39	0xbccbbf2e	-0.024871435
40	0x3d7dc1d8	0.061952442
41	0x3c4a1991	0.012335197
42	0x3d45e999	0.04831848
43	0xbd81117f	-0.06302165
44	0xbde5c349	-0.11218888
45	0x3c800774	0.015628554
46	0xbdc06d33	-0.09395828
47	0xbc924419	-0.017854737
48	0xbd5442cb	-0.05182151
49	0xbd967eed	-0.07348428
50	0xbcfee8d6	-0.031116884
51	0xbd1e9f6c	-0.038726255
52	0xbca957c9	-0.020671742
53	0x3d91d02a	0.07119782
54	0xbd2fe318	-0.042941183
55	0x3c00f8ed	0.0078718485
56	0x3d176cb3	0.036968898
57	0xbdb24952	-0.08705391
58	0xbcfb8409	-0.030702608
59	0x3daa4cc9	0.08315427
60	0x3de85767	0.11344796
61	0xbdb21aa0	-0.086964846
62	0xbe00b627	-0.12569486
63	0x3da88b20	0.08229661
64	0xbdb85b73	-0.090018176
65	0x3d9825a6	0.07429056
66	0x3da9f44c	0.08298549
67	0x3dcbf102	0.09958078
68	0x3df75c33	0.120781325
69	0xbd789d6c	-0.060697004
70	0x3c7783e5	0.01510713
71	0xbd665b10	-0.056239188
72	0xbd90ef79	-0.07076926
73	0x3dbbc292	0.09167971
74	0xbd90620d	-0.07049952
75	0xbdae0d75	-0.084986605
76	0xbddba06d	-0.10723958
77	0xbdb78073	-0.089600466
78	0x3d92348c	0.07138929
79	0x3d865e30	0.065609336
80	0xbd5b5430	-0.053547084
81	0x3dcc1f28	0.0996688
82	0x3dc1cf10	0.09463322
83	0xbcf9b52e	-0.030481901
84	0xbdedb40d	-0.116066076
85	0x3bf661dd	0.0075189904
86	0xbd0bc00a	-0.03411869
87	0xbcaeca31	-0.021336647
88	0xbdd01c79	-0.10161681
89	0x3d82e8e3	0.06392076
90	0x3c437ab6	0.011931112
91	0x3dad6839	0.084671445
92	0x3da01f9a	0.078185275
93	0x3de48eea	0.11160071
94	0xbce8a91c	-0.02840095
95	0x3df33c7f	0.11876773
96	0x3c6b06f2	0.014344918
97	0x3de53400	0.11191559
98	0xbcba1388	-0.022714391
99	0x3d6b6086	0.0574651
100	0x3d247ecf	0.040159997
101	0xbdde0857	-0.108414344
102	0x3dddfbb6	0.10839026
103	0x3d52d2b3	0.05147047
104	0x3d2046b1	0.039129917
105	0x3df22332	0.11823119
106	0xbcb894db	-0.022531917
107	0xbbfc1b77	-0.0076937038
108	0xbd576ea6	-0.052595757
109	0xbc8646ab	-0.016391119
110	0xbd305685	-0.04305126
111	0xbda90c2b	-0.08254274
112	0xbd899bf5	-0.067191996
113	0x3d2a0e29	0.04151741
114	0xbc98e683	-0.018664604
115	0xbd0b9040	-0.034073114
116	0x3da5ad6c	0.08089718
117	0x3d607606	0.054800056
118	0xbc9f83cc	-0.019472025
119	0xbd855476	-0.0651025
120	0x3d2478ed	0.040154386
121	0x3d9cb99f	0.07652592
122	0xbda0aa9a	-0.0784504
123	0x3dd96d01	0.10616494
124	0xbd259f17	-0.040434923
125	0x3ca25e53	0.019820368
126	0x3b654879	0.0034985824
127	0xbdaf9d8c	-0.085749716
128	0xbd89028a	-0.066899374
129	0x3d089e23	0.033353936
130	0xbcf1624b	-0.029465815
131	0x3dd6c986	0.10487656
132	0xbc047aa5	-0.008085881
133	0xbd69856c	-0.057012007
134	0x3de72867	0.11287003
135	0x3d0c0b38	0.034190387
136	0xbe01d11f	-0.1267743
137	0x3d77989d	0.060448278
138	0xbcad30dc	-0.021141462
139	0xbc24c4ee	-0.010056717
140	0x3d9914f8	0.074747026
141	0x3d624f49	0.055251393
142	0xbd4ece8d	-0.05048995
143	0x3d7c2a58	0.06156382
144	0x3d959a9d	0.07304881
145	0x3d2572fb	0.040392857
146	0x3df11fa2	0.117736116
147	0xbc2c31df	-0.010509937
148	0xbd8ccb73	-0.06874742
149	0x3d6a6425	0.05722441
150	0x3deaaf91	0.11459268
151	0x3dc3e97b	0.09566017
152	0xbdf10ce3	-0.11770036
153	0xbdc8ed1d	-0.09810851
154	0x3deaf0db	0.11471721
155	0x3d2f78dc	0.04283987
156	0x3d3d4d5c	0.046216354
157	0x3d2a6ff4	0.041610673
158	0xbd623b4e	-0.05523234
159	0xbdc675f9	-0.0969047
160	0xbda784cd	-0.081796266
161	0x3d1185e4	0.03552808
162	0x3d5d5aaa	0.054041542
163	0x3dd7a95f	0.10530352
164	0x3ddda3d8	0.10822266
165	0x3bb9154c	0.0056482907
166	0x3daea612	0.08527769
167	0x3de6c2cd	0.11267624
168	0x3c4f7bc9	0.01266379
169	0xbcce07f1	-0.025150271
170	0xbd3bac41	-0.04581857
171	0x3dcb5878	0.099289834
172	0x3b92cc94	0.004479954
173	0xbd7530a5	-0.059860844
174	0xbd34d54e	-0.044148736
175	0xbdd80353	-0.10547509
176	0x3be1aab1	0.006886803
177	0x3dce3ebb	0.10070559
178	0x3da656cd	0.08122025
179	0x3d5dc857	0.054146137
180	0xbd84dc9a	-0.06487389
181	0xbd0ef232	-0.034898944
182	0xbcc01efd	-0.023452276
183	0xbd84931e	-0.06473373
184	0xbde62cf8	-0.11239046
185	0xbdca3e1b	-0.09875127
186	0xbdd6bdae	-0.10485397
187	0xbbfcd6f3	-0.0077160536
188	0xbc54b7c8	-0.01298327
189	0xbdf68193	-0.12036433
190	0x3cb72f43	0.022361403
191	0xbc0afd1d	-0.0084831985
192	0xbd755135	-0.0598919
193	0x3d7a9a01	0.061182026
194	0xbda1484d	-0.078751184
195	0xbd9d6acb	-0.07686385
196	0xbdf90018	-0.12158221
197	0x3ca6e60f	0.020373372
198	0xbdc42ec9	-0.09579236
199	0x3aac42e1	0.001314249
200	0xbd9e9115	-0.07742516
201	0x3d884c0b	0.06655129
202	0xbd9a7f2b	-0.075437866
203	0xbd980271	-0.07422341
204	0x3c166f85	0.009181862
205	0xbdcd74b3	-0.10032024
206	0x3dd16749	0.10224778
207	0xbcbcd0fd	-0.023048872
208	0x3d1f251e	0.038853757
209	0x3cae1ae3	0.021253055
210	0xbc42692a	-0.011865893
211	0x3da6a36f	0.08136641
212	0xbd5cec1d	-0.053936113
213	0xbc002ad4	-0.007822711
214	0x3d562c87	0.05228856
215	0x3dd33c06	0.10314183
216	0xbd8ac871	-0.067765124
217	0xbd344322	-0.044009335
218	0xbdc67552	-0.09690346
219	0xbd97585d	-0.07389901
220	0x3ddae141	0.10687495
221	0x3dcdf76c	0.100569576
222	0x3dc9838a	0.09839542
223	0x3d7e20cd	0.062043
224	0x3d8e9ca1	0.06963468
225	0xbd393021	-0.045211915
226	0xbdf518ed	-0.11967645
227	0xbbf7731c	-0.007551564
228	0xbddb983b	-0.10722395
229	0x3da151c1	0.078769214
230	0xbb64cf11	-0.003491346
231	0x3cea8c50	0.02863136
232	0xbd8a48a1	-0.06752134
233	0x39603e49	0.00021385508
234	0x3dcc9dd8	0.09991044
235	0xbd3027c6	-0.04300668
236	0x3d810692	0.06300081
237	0xbd3eea7c	-0.04661034
238	0xbc534aff	-0.012896298
239	0x3e02d975	0.12778266
240	0xbda185a9	-0.07886822
241	0x3d326f67	0.043563273
242	0xbdc9308c	-0.09823713
243	0xbd6c356a	-0.057668127
244	0xbd068580	-0.03284216
245	0xbc2dede3	-0.010615799
246	0xbac2c216	-0.0014858868
247	0x3d9f6c9a	0.07784386
248	0xbd2886f0	-0.04114431
249	0x3c55f2e5	0.013058399
250	0xbd0c9636	-0.03432294
251	0xbdb1dc03	-0.08684542
252	0xbbca7205	-0.006178143
253	0x3d642a8f	0.05570465
254	0xbd0d8445	-0.03454997
255	0x3da444db	0.08020946

layer3.bias f4 [4]
0	0xbd138b4b	-0.036021512
1	0x3c90b8f9	0.017666327
2	0x3d8e928c	0.06961545
3	0xbddafce1	-0.10692764
