mukul_model.pth (torch, 88304 bytes, 6 tensors)

layer1.weight f4 [128, 100]
000000 3e 25 6e 3d a0 f0 c3 3b 28 ef d8 bc 37 87 5e bd
       0.058140986 0.0059796125 -0.026481226 -0.05432817
000010 6b 1e ae bd 8b 81 9b bd 06 06 76 3d 0a a7 4f 3d
       -0.085018955 -0.07593068 0.06006434 0.05069641
000020 61 4c a3 3d 52 5b 74 3d 44 d2 0b bd cb 6d b5 3d
       0.079735525 0.059657402 -0.03413607 0.08858832
000030 4d 33 c8 3d e5 53 94 3d ca 64 a6 bd 00 8c 22 3a
       0.0977541 0.07242564 -0.08124693 0.0006200671
000040 de 16 8b bd f6 a5 00 bd 62 48 55 3d d0 19 2c bd
       -0.06791471 -0.031408273 0.052070983 -0.042016804
000050 68 57 95 bc 56 ed 14 3d eb c2 c8 3d 8a 1f 5c 3d
       -0.018230155 0.036359154 0.09802803 0.053741015
000060 e0 6a e9 bc e8 9a 91 3c 5d 35 54 bd 00 32 fc ba
       -0.028493345 0.01777406 -0.051808704 -0.0019240975
000070 c0 03 6a bb 43 e9 67 bd 72 f9 79 3d c8 22 ba bd
       -0.0035707802 -0.05661894 0.061028905 -0.09088665
000080 b6 76 19 3d da a6 6e bd 90 cd 58 3c 82 4b 1b 3d
       0.037466727 -0.05826459 0.013232604 0.037913807
000090 d8 27 c4 bc 53 9b a4 3d f0 e6 69 bd db 47 c8 bd
       -0.02394478 0.08037438 -0.057105005 -0.0977933
0000a0 e1 99 a7 3d 98 61 7c bc 40 78 57 3b 20 d4 45 bd
       0.08183647 -0.015404128 0.003287807 -0.048298
0000b0 da 88 a0 bd 4a 71 22 bd fa 05 50 bd 17 df c5 bd
       -0.07838602 -0.039658822 -0.05078695 -0.09661692
0000c0 09 cf 9f 3d 1f 59 8e 3d 30 a2 1f bc 52 5b 1d 3d
       0.07803161 0.06950592 -0.009743258 0.038417168
0000d0 3c ff d8 3c 50 53 58 bd 2e fb 96 bd 68 55 b2 3c
       0.026488893 -0.052813828 -0.073721275 0.02176924
0000e0 d6 d0 19 3d 2d fa 21 bd b3 66 a4 bd 42 1a 30 3d
       0.037552677 -0.039545227 -0.08027401 0.04299379
0000f0 a0 76 12 bb a7 14 b4 bd 18 16 1e bc 78 23 bd bd
       -0.0022348538 -0.087930016 -0.009648822 -0.09235281
000100 1b 99 b5 3d 59 5b a9 3d c4 ec d2 3c 0d 9a 84 bd
       0.08867093 0.08269376 0.025747664 -0.06474695
000110 fb 77 a4 3d c3 b5 9e bd f2 7d 8a bd 14 3a e5 3c
       0.08030697 -0.07749512 -0.067623034 0.027981795
000120 9a ee 4f bd f7 5b 57 bd 0a 1c 77 3d 16 48 0e 3d
       -0.050764658 -0.05257794 0.060329475 0.034736715
000130 92 dd 0d 3d 86 15 3e 3d 80 2e 3f 3a 76 b4 9f bd
       0.034635134 0.046407245 0.0007293001 -0.07798092
000140 53 a4 39 bd a0 25 9a bc 9b a6 8e 3d 51 b9 a6 3d
       -0.045322727 -0.01881677 0.06965371 0.08140815
000150 6d 05 99 3d 3b 26 a9 bd 6a fc 3a 3d 7f d2 b6 3d
       0.07471738 -0.08259245 0.045650877 0.08926868
000160 30 3a 74 bc 1f 04 ba 3d ec 08 bb 3c 1b 5d bb bd
       -0.014906451 0.09082817 0.022831403 -0.09148618
000170 ab ed b3 bd 22 c7 bf bd 24 6e f0 3c 87 9b 53 bd
       -0.08785566 -0.093641534 0.029349394 -0.051661994
000180 c8 10 c7 bd 32 3b 3b 3d d9 e7 a2 3d 40 ec 69 3c
       -0.09719998 0.04571075 0.07954378 0.014277518
000190 d0 50 1d bc 38 5f 9d bd 93 cc ac bd 38 7b b3 3c
       -0.009601787 -0.07684177 -0.08437457 0.021909341
0001a0 10 7b 3b 3c 5b b2 9f 3d ad 24 b3 3d 10 87 2a bd
       0.011442915 0.077976905 0.0874723 -0.041632712
0001b0 ed a0 7f bd d2 67 b2 bd 9e bb 75 3d ca 4a b7 bd
       -0.06240933 -0.087112084 0.05999338 -0.08949812
0001c0 78 d3 b3 bd 98 19 b7 bd b2 5b 43 3d 2a 21 5a bd
       -0.08780569 -0.089404285 0.04769487 -0.053254284
0001d0 0b 5d 84 3d b0 27 5f bc ee a3 38 3d 80 50 6e bd
       0.06463059 -0.013620302 0.04507821 -0.05818224
0001e0 b0 10 88 3b 03 a3 48 bd d4 36 ed 3c ef b0 bf bd
       0.00415238 -0.048983585 0.028956808 -0.09359919
0001f0 47 c6 59 bd ef 17 91 3d 51 5e 9d 3d 35 d9 94 bd
       -0.053167608 0.07084643 0.07684005 -0.072679915
000200 28 5a 65 3c f0 72 44 bd 33 a3 58 bd 85 b4 a2 bd
       0.013998546 -0.047961175 -0.052890014 -0.079445876
000210 46 d3 61 3d f4 05 e6 3c e2 9f 48 3d c1 57 81 3d
       0.055133127 0.02807901 0.0489806 0.06315566
000220 fd 12 ca bd de 3f a3 bd 40 5f 35 bd 20 c4 34 bd
       -0.09866903 -0.07971166 -0.04428029 -0.044132352
000230 00 a3 91 39 9d 30 2b bd 43 78 6b bd d4 fd 07 bd
       0.00027778 -0.041794408 -0.057487737 -0.033201054
000240 36 24 47 3d aa cb 0c 3d 05 76 ba 3d a5 96 85 3d
       0.048618518 0.034373917 0.09104542 0.06522874
000250 d4 92 85 bc 22 d5 b7 bd 94 6c c1 bc 99 97 a6 3d
       -0.016305365 -0.08976199 -0.023611344 0.08134384
000260 34 1d d4 bc 7d ce 24 bd ba 1d 5e bd 4d 38 a0 3d
       -0.025892831 -0.040235985 -0.05422757 0.078232385
000270 17 b1 1a bd 3b c2 96 3d d0 84 7c bc d0 2a f0 bb
       -0.037766542 0.07361265 -0.015412524 -0.0073293224
000280 f5 1b c3 3d d0 30 bf bd e7 38 bf bd 98 cd 7e 3c
       0.09526817 -0.09335482 -0.09337025 0.015551947
000290 00 17 84 bb 62 71 6e 3d 38 47 80 3c 5a bd 78 3d
       -0.004031062 0.0582136 0.01565896 0.060727455
0002a0 70 ba 26 bc 97 f0 cb 3d 28 0e 80 3c fe af 8f bd
       -0.010176286 0.09957998 0.01563175 -0.0701599
0002b0 00 7c 04 bd aa 84 21 3d c0 1e aa 3a 69 2e 90 3d
       -0.032344818 0.03943316 0.0012979135 0.07040102
0002c0 0d 82 4e bd 77 48 95 3d 46 95 20 3d 41 80 c7 3d
       -0.050416995 0.07289212 0.03920486 0.09741259
0002d0 32 21 42 3d 70 68 01 bd 7c 8e 86 bd ff 04 8c 3d
       0.04739494 -0.03159374 -0.065701455 0.068368904
0002e0 01 d8 83 3d 60 41 67 bb fa aa 7d 3d 87 b2 8e 3d
       0.06437684 -0.003528677 0.061930634 0.06967645
0002f0 0c 2a ab 3c 45 60 c1 3d 70 af 5c bc 55 db af 3d
       0.020894073 0.0944219 -0.013469562 0.08586756
000300 92 10 7e 3d e8 ac 8f bc c1 d5 b4 3d 00 35 59 bb
       0.06202752 -0.017538503 0.08829833 -0.0033143163
000310 72 95 cb bd 7e ea 41 3d c0 b9 21 bc 39 74 bd 3d
       -0.09940614 0.04734277 -0.009870946 0.09250683
000320 48 9e 86 bd 26 2b 76 3d dd 1f a8 bd 4d 04 c2 bd
       -0.065731585 0.060099743 -0.082092024 -0.094734766
000330 3f 4c c1 3d 54 79 a9 bc aa 33 74 bd 02 db 96 bd
       0.09438371 -0.020687737 -0.059619583 -0.07365991
000340 60 e1 c6 3c 8a 2e 06 3d e0 f1 bc 3b 7e 26 3f 3d
       0.024277389 0.032759227 0.0057661384 0.04666757
000350 e2 f8 58 3d c0 2e 43 bd bd dc 74 bd 97 c9 ca bd
       0.05297173 -0.047652006 -0.059780825 -0.099017315
000360 14 3b a1 3c 58 5e 2b bc 60 24 25 3b b4 43 ac bc
       0.019681491 -0.010459505 0.0025198683 -0.021028377
000370 dd cf 1f bd ac 96 da 3c 0c a2 cc 3c 80 37 ac bc
       -0.039016593 0.026683174 0.024979614 -0.021022558
000380 4a 9d a0 bd 92 b9 28 3d 40 55 e7 ba bd ad bc bd
       -0.078425005 0.0411926 -0.0017649308 -0.092128254
000390 72 1b a9 bd 6d a0 81 bd 80 52 6f bd 27 9e 65 bd
       -0.08257188 -0.06329427 -0.058428288 -0.05605903
0003a0 be 68 7e 3d ac 79 a9 3c c4 52 d7 3c 50 1d 4f bc
       0.06211161 0.0206879 0.026284583 -0.012641266
0003b0 90 41 11 bd 96 d0 64 3d ed 58 38 bd 8d d6 b6 3d
       -0.035462916 0.055862986 -0.04500668 0.08927641
0003c0 ec 80 f5 bc 9a 3a 15 3d d2 8a 48 3d 84 3d d2 3c
       -0.029968701 0.03643284 0.048960514 0.025664099
0003d0 c6 0d 5c 3d 68 27 5f bc 66 c3 7f 3d 5f e0 b2 3d
       0.053724073 -0.013620235 0.062442206 0.08734202
0003e0 5a d4 65 bd 5d 7e a3 3d 66 a0 3f 3d 6a 08 52 3d
       -0.056110717 0.07983086 0.046783827 0.051277556
0003f0 a3 11 ad 3d 98 9d cc 3c 00 41 a4 3b 89 0d c1 3d
       0.084506296 0.02497749 0.0050126314 0.0942641

layer1.bias f4 [128]
000000 72 b9 69 3d 6a 9d 6c bd 23 bb 5e bd c2 b9 0b 3d
       0.05706162 -0.05776731 -0.054377686 0.0341127
000010 26 2f 53 bd dd b9 96 3d 8d cd 56 bd 18 2e b9 3c
       -0.051558636 0.07359669 -0.052442122 0.022604987
000020 72 58 ca 3c f4 4a eb 3c 03 a9 9f bd 1b 1b 1f bd
       0.024700377 0.028722264 -0.07795908 -0.03884421
000030 f5 4f c3 3d 33 76 28 bd 30 d0 7e bd 85 3d d9 bc
       0.09536735 -0.04112835 -0.06221026 -0.026518593
000040 dd bb 11 bd b0 2b bb bd 12 48 4a 3d d7 33 13 3d
       -0.03557955 -0.09139192 0.049385138 0.03593811
000050 d7 42 ab 3d e8 b4 6a bd 6a 18 0c 3d d4 f0 c7 bc
       0.08362358 -0.057301432 0.03420297 -0.024406828
000060 0e aa b6 bd 39 a8 83 3d 26 51 d3 3b 03 4f ca 3d
       -0.08919154 0.0642857 0.0064488826 0.098783515
000070 c7 44 87 bd 0f f6 87 3c cc 93 82 3c e3 79 b4 bc
       -0.06604915 0.016596822 0.015939616 -0.022030776
000080 0f 5a 88 3d 2c 61 fb ba ea 4b a3 bd 78 9e bf bd
       0.06657802 -0.001917874 -0.07973464 -0.093563974
000090 be 59 88 bd 08 9e af bd 00 2b 63 3c 33 2d 5d 3d
       -0.06657742 -0.08575064 0.0138652325 0.053998183
0000a0 d3 a6 fa bc 2a 80 71 bd 97 85 02 bd bd d2 a3 3d
       -0.030597126 -0.058960117 -0.031865682 0.079991795
0000b0 b2 5e 5b 3d 51 4a a9 bd 5d 71 ef 3b 5a 97 53 bc
       0.053557105 -0.08266128 0.007307215 -0.012914503
0000c0 f5 64 62 3d 35 09 6a 3d e7 37 03 3d 4a 32 97 3d
       0.05527206 0.057137687 0.032035735 0.07382639
0000d0 a1 ae f1 bc 70 08 72 3d b5 0f be 3d 5a 7a 74 bd
       -0.029502215 0.059090078 0.0928034 -0.059686996
0000e0 37 77 3f bd 31 1f 17 bd 7d 6a 90 3d 12 63 76 3d
       -0.04674455 -0.03689498 0.07051561 0.060153075
0000f0 44 03 b2 3d bc 83 a5 bd 6a 35 7d bd 00 1b 3f bb
       0.08692029 -0.08081767 -0.061818518 -0.002916038
000100 8a 3e a4 bd 3c 5a 16 bd d7 1e 75 3d c8 4d 8c bc
       -0.08019741 -0.036707148 0.059843864 -0.017126933
000110 07 15 7a bd b5 b5 bf bd ed 8c d0 bd cd 23 8e 3d
       -0.06105521 -0.0936083 -0.101831295 0.06940422
000120 6a 56 74 bd 40 eb f4 bc 90 02 b6 3d 16 ae fa bd
       -0.059652723 -0.029897332 0.088872075 -0.122402355
000130 6f b2 74 bc 73 87 66 bd 80 a4 08 bc b8 c3 aa 3d
       -0.01493512 -0.05628152 -0.008340001 0.08338112
000140 bd d5 1b bd 85 da bb bd 0b 00 03 3d b6 16 ae 3c
       -0.038045634 -0.09172539 0.031982463 0.021251064
000150 c9 c8 8a 3c 3f 4e b3 bd 44 1f 40 3c 91 92 b0 3d
       0.016941445 -0.08755159 0.011726204 0.08621705
000160 88 42 80 bd 37 f4 6f 3d 16 a0 8c 3d 50 da 11 bc
       -0.0626269 0.05858251 0.068664715 -0.008902147
000170 b5 dd f9 bc b7 c3 90 3c 31 42 6a 3d 1c 96 c7 3b
       -0.030501226 0.01767145 0.05719203 0.0060908925
000180 40 e5 7b bd 15 c9 e5 3c 20 21 e2 bd a7 ef 9a 3d
       -0.061497927 0.028049985 -0.11041474 0.07565241
000190 a0 e3 a2 3c 6e bb 41 3d c8 9e 91 3c 92 cb cb bc
       0.01988393 0.047297888 0.017775908 -0.024877343
0001a0 f2 5b 28 bd e0 b4 e9 3b 7f 91 1f bd 2c ba 9f bc
       -0.04110331 0.0071321577 -0.038957115 -0.019497953
0001b0 3b 72 9a 3d 74 c5 4b 3d f9 20 cb 3d e3 d9 bd 3d
       0.07541319 0.049748853 0.099183984 0.09270074
0001c0 48 07 58 bd 0b 44 86 bd e2 54 01 3d e0 39 96 bd
       -0.05274132 -0.06555947 0.03157509 -0.073352575
0001d0 e0 9f 13 bd 2c 75 e3 bc 79 4c 50 bd 60 9c a1 bb
       -0.03604114 -0.027765833 -0.05085418 -0.0049319714
0001e0 21 8b be 3d b2 34 5c 3d d0 24 4b bc 5d 9d 2c bd
       0.093038805 0.05376119 -0.0123989135 -0.04214226
0001f0 5f 5b 8f 3d 7a fe 32 3d c0 c5 9a 3d 2e a9 22 3d
       0.069998495 0.04369972 0.07557249 0.039712124

layer2.weight f4 [64, 128]
000000 af 56 b1 3d 83 5e a4 3d 03 5a 92 3d da 2a 3d 3d
       0.08659112 0.08025839 0.071460746 0.046183445
000010 17 16 c8 3c 33 00 3b 3d 70 6e 82 3b ba 8b 26 3d
       0.024424596 0.045654487 0.0039804503 0.040660597
000020 03 e5 85 bc e4 98 81 3d d5 01 1c bd cc 5e 8f bc
       -0.016344553 0.0632799 -0.038087685 -0.017501257
000030 7b 9b 99 3d de 13 4e 3d ae 12 43 3d 0e 3b 98 3d
       0.07500359 0.050311916 0.047625236 0.07433139
000040 d4 de 01 3d 13 b2 d2 3c e9 81 a7 3d e5 4e 99 bd
       0.031706646 0.025719678 0.08179075 -0.07485751
000050 fc 75 f7 3c 15 37 f1 bd ab b1 16 bd 40 d3 72 bc
       0.030207627 -0.11778084 -0.03679053 -0.014820874
000060 7e 49 5b bc 41 90 8f 3d a5 55 51 3d ac 12 89 bd
       -0.013384221 0.07009936 0.051107068 -0.066930145
000070 9e 4e 81 3d db 6f 7a bd e8 e0 39 bd 70 c0 04 39
       0.06313823 -0.06114183 -0.045380503 0.0001266019
000080 37 4a 95 3d 4a 65 5b 3d 38 7f 5c bc 79 22 0d bd
       0.07289546 0.053563394 -0.013458066 -0.034456704
000090 d3 8f 86 3d 94 61 46 bd 48 be d6 bc 93 d2 50 3d
       0.06570401 -0.0484329 -0.02621378 0.05098207
0000a0 cf 96 b8 3c 80 96 8f 3b ef 76 80 bc 11 c0 59 bd
       0.022532849 0.0043819547 -0.015681712 -0.053161684
0000b0 57 2d 91 bd 33 33 9d bd a3 29 44 bd 85 0f 90 bd
       -0.07088726 -0.07675781 -0.04789127 -0.0703421
0000c0 83 85 b1 ba cb 2a b5 bb 5b e5 8d 3d 76 6c 86 3d
       -0.0013543818 -0.005528783 0.06928512 0.06563656
0000d0 2c 85 6d bd 66 cf fc bd c1 39 de 3c a1 ff 33 bd
       -0.05798833 -0.123442456 0.027127149 -0.04394496
0000e0 53 1b a6 3d 75 03 43 bd b5 3c 91 3c ae 90 22 bd
       0.081106804 -0.04761072 0.017729143 -0.03968876
0000f0 7e 0c 6d 3d 9b ed 1a bd 0f ba ab 3d 0f 68 6b bd
       0.05787324 -0.037824254 0.08385097 -0.057472285
000100 14 c1 89 bc d8 ce 06 bc 52 b8 e2 bc 2c ac f6 bc
       -0.0168157 -0.008228026 -0.027675781 -0.030111395
000110 d5 6a 9f 3d 44 4d 2a bd 32 ef ad 3b 60 79 bf 3b
       0.077840485 -0.041577592 0.0053080553 0.0058433264
000120 13 62 9e bd 25 ea 9d bd 8e ad 8f 3d 3d ce a9 3d
       -0.0773355 -0.07710675 0.07015525 0.0829129
000130 b4 fb 43 bc 08 ef 71 bd 38 3b b4 bd 74 48 20 3c
       -0.011961866 -0.05906585 -0.088003576 0.009782899
000140 9f d6 d8 3c 81 e7 ae 3d 22 83 aa bc a7 1a 73 3d
       0.026469527 0.085402496 -0.020814482 0.05935159
000150 c9 fb 3a 3d bb be 95 3d ab 4b 15 bd 08 45 98 bd
       0.045650277 0.073117696 -0.036449116 -0.07435042
000160 d3 cf 9c 3d 85 ec 1f 3d 15 2a 1b bd 37 5c b1 3d
       0.07656827 0.039043922 -0.03788193 0.08660167
000170 27 77 e3 bc 7f d4 14 bd 62 fc 78 3d 0c f3 1e 3d
       -0.027766777 -0.036335465 0.060787566 0.038806006
000180 02 4e 9a bd 5e 1c 9f bd 96 17 7e 3d 6f 1a a7 bd
       -0.0753441 -0.077690825 0.062034212 -0.08159339
000190 b3 0d 93 3d d1 ec 04 bd c0 d4 44 bb d0 a9 84 bd
       0.07180347 -0.03245241 -0.0030034035 -0.06477702
0001a0 16 54 1e 3c 90 11 9b 3b 18 8b 44 bd 1e 6b 42 3d
       0.009663602 0.004732318 -0.047984213 0.047465436
0001b0 c0 1d d1 3d 69 9b 16 3d 7b 7b 2c bd 9c df 72 bd
       0.102107525 0.036769304 -0.042109948 -0.05929528
0001c0 65 8f 2e bd 88 c3 76 bc 60 3e 1a bc 2b 4b 87 bd
       -0.04261722 -0.015061267 -0.009414285 -0.06606134
0001d0 0e 13 8e bd b8 29 69 bc 65 43 74 bd a8 39 89 bc
       -0.06937228 -0.014231138 -0.059634585 -0.016751125
0001e0 04 53 e4 bc b8 be 62 bc 3d 30 9a 3d e3 14 98 3d
       -0.027871616 -0.013839416 0.07528732 0.07425859
0001f0 ca 80 98 3c 17 1b 8b 3d e7 14 96 3d af 6c b2 3c
       0.018616099 0.06792276 0.073282056 0.02178034
000200 00 60 6d 37 da a3 1b 3d e0 39 57 bb 70 0e d0 3b
       1.4148653e-05 0.037998058 -0.0032840893 0.0063493773
000210 c2 c0 c6 bc f7 13 6b 3d 40 63 dc 3c ba f6 39 bd
       -0.024261836 0.057392087 0.026902795 -0.045401312
000220 f1 fd b5 bd 1d 65 d5 bc 9d 2d 56 3d 1d 13 54 bd
       -0.08886326 -0.026049191 0.052289594 -0.05177604
000230 b4 bf 3f bc 68 30 ea 3c 30 87 a6 bb 90 81 1c 3d
       -0.01170342 0.028587535 -0.0050820336 0.038209498
000240 05 24 91 3d 40 67 ac bc e6 24 1f 3d 7e 53 ac bd
       0.07086948 -0.021045327 0.03885355 -0.08414362
000250 4e 29 97 3d 59 08 73 3d 12 2f 29 3d 68 fa 61 bc
       0.07380925 0.059334133 0.041304655 -0.013792612
000260 25 d1 6e bd 02 bb 6c 3d 65 a0 ab bd 5a 20 7c bd
       -0.058304925 0.057795532 -0.08380202 -0.06155429
000270 2c 5e 80 bc 4f 5b a1 3d fd f8 33 bb 8e fc ec ba
       -0.015669905 0.07878744 -0.002746164 -0.0018080638
000280 75 ed 42 bc da dd 52 3c 88 56 00 3c ed 01 ba bd
       -0.0118974345 0.012870276 0.007833131 -0.090823986
000290 ba 5f 57 3d 23 43 4d bd b8 84 97 bc cc cf 48 bd
       0.052581526 -0.050112855 -0.018495902 -0.049026296
0002a0 14 17 00 bd f6 f7 25 3d 8f ef e2 3c 68 3e 85 bc
       -0.03127201 0.040519677 0.027702121 -0.01626511
0002b0 6c b9 c7 3b 61 71 ea 3c 27 92 c7 3c 96 00 52 bd
       0.006095102 0.028618516 0.024361683 -0.05127009
0002c0 2a 05 79 3d 60 b2 33 bd 51 c9 70 bd c9 a0 0b bd
       0.06079594 -0.043871284 -0.05878574 -0.034088884
0002d0 c0 e9 14 bd 91 7c 05 bc 09 16 8e ba 52 58 f0 bc
       -0.036355734 -0.008147375 -0.0010840307 -0.02933899
0002e0 80 95 45 bd ae 42 33 3d d6 51 1d bd e0 8a a5 3c
       -0.048238277 0.043764763 -0.038408123 0.020207822
0002f0 f7 96 b4 bd 29 3e 84 bd 47 8a a5 bd 8f fe 0f bd
       -0.08817857 -0.064571686 -0.08083015 -0.035154875
000300 e0 c1 8b 3c 10 26 5d bc 76 06 3b 3d 5b e1 ae bd
       0.01706022 -0.013497844 0.04566046 -0.08539077
000310 19 30 49 bd e4 0e 12 3d 0c df 4d bd 5f 78 b0 3d
       -0.049118135 0.035658732 -0.050261542 0.08616709
000320 d8 0a 11 3d a2 30 1a 3d 8a 29 b6 bd dc a6 b5 bd
       0.035410732 0.037644036 -0.08894642 -0.088697165
000330 47 7f 39 bd 82 6e 0f 3d 28 bc a7 bd 3a c6 9f bd
       -0.045287397 0.035017498 -0.08190185 -0.078014806
000340 05 30 88 bd 51 74 2b bd b8 0f 51 bd d9 33 5c 3d
       -0.06649784 -0.041858975 -0.05104038 0.053760383
000350 6e 3d 6b 3c a7 20 8d bd 90 38 94 bc 04 23 48 bd
       0.014357908 -0.068909936 -0.018093377 -0.04886152
000360 c1 79 6a 3c 92 fa d0 3c ef 0c 26 bd a5 9b 9e bd
       0.014311255 0.025510106 -0.04053968 -0.077445306
000370 e9 ec ac bc 6c 68 f5 bc f5 0b 94 bd d8 2e 00 bc
       -0.021109061 -0.029957019 -0.07228843 -0.007823668
000380 70 a9 1e 3c d0 ca 96 bd 46 f2 f5 bc 28 65 7b 3c
       0.009683952 -0.07362902 -0.030022752 0.015343942
000390 6b 96 00 bd 38 41 35 bc fa e3 0f 3d e2 53 85 bd
       -0.03139345 -0.011062913 0.035129525 -0.0651014
0003a0 96 18 38 3a ca 75 d9 bc 01 60 91 3d 8a fd 20 bd
       0.00070227066 -0.026545424 0.070983894 -0.039304294
0003b0 15 41 9b bd 7f d5 04 3d fc 0b 8f 3c 03 8d a1 bd
       -0.07580773 0.03243017 0.01746177 -0.07888224
0003c0 9f 95 9b 3d cb e1 95 bd a3 2e a0 3d 86 db 64 3d
       0.07596897 -0.07318457 0.07821395 0.055873416
0003d0 58 32 80 3d 38 08 03 bd 67 7e de 3c 2b 8d 84 3d
       0.06259602 -0.03199026 0.027159883 0.06472238
0003e0 58 61 c9 3c e9 a4 99 3d b6 e4 70 3d 97 60 cf bc
       0.02458255 0.07502157 0.058811866 -0.025314612
0003f0 97 4b 52 3d ea ca 8e bd 54 d5 2f 3c 73 a2 b2 bd
       0.05134162 -0.069722965 0.010732014 -0.08722391

layer2.bias f4 [64]
000000 62 cc 8b bc 80 70 83 3d 00 ca 57 3d f6 6a af bd
       -0.01706523 0.06417942 0.052682877 -0.08565323
000010 8f 91 ea 3c 11 9c 08 3d 9d 57 73 bd 4f b9 fa 3c
       0.02863386 0.03335196 -0.059409726 0.03060594
000020 b6 ea a1 3c ae 09 b9 bb c8 94 dc bc 67 0a af 3d
       0.01976524 -0.005646906 -0.026926413 0.08546906
000030 94 f9 42 3d bc 2b ae bb b8 a7 4e bd eb 93 fd 39
       0.047601297 -0.005315272 -0.050452918 0.00048366128
000040 a2 b9 93 bc 52 7d 50 3d fd 32 47 3d 80 8f 97 3d
       -0.018032853 0.050900765 0.04863261 0.07400417
000050 70 11 d4 3c 8c 03 e9 bc 0b de 12 3d a8 57 cc bc
       0.025887221 -0.028444074 0.035856288 -0.024944142
000060 f3 20 b3 bd a2 c2 8c 3d 2b 0c 6d 3d f9 8e 8d bc
       -0.08746519 0.06873061 0.057872932 -0.017280089
000070 3c 31 62 bd 74 6c 1b bd 75 ef 39 3d f1 54 16 3d
       -0.055222735 -0.037945226 0.04539438 0.0367021
000080 0c 89 4c 3d 9e a2 c9 3c 2a 2f be bd b1 4e b5 3d
       0.049935386 0.024613675 -0.092863396 0.088529
000090 0c 09 9c bd 4d 9b b1 3d 70 99 84 bd d0 6a bc 3b
       -0.07618913 0.086721994 -0.064745784 0.0057500377
0000a0 29 c5 80 3d 89 d9 9f 3d 26 be 50 3b 3a 1d 13 bd
       0.06287605 0.078051634 0.0031851619 -0.035916544
0000b0 de 34 4a 3d 93 63 78 bc f6 c2 bc bd 3e da 87 bd
       0.049366824 -0.015160459 -0.09216873 -0.06633423
0000c0 7e ec 37 bd b1 19 28 bd 9e ff 9f bc a2 06 55 bd
       -0.04490327 -0.041040126 -0.019531067 -0.05200828
0000d0 31 26 8f 3c c0 35 8a ba 4e dc be bd d8 03 54 bd
       0.017474266 -0.0010544583 -0.093193635 -0.05176148
0000e0 90 60 e8 bb ad 4d d7 3c 0e 42 24 3d db 4f 28 bc
       -0.0070915893 0.026282156 0.040102057 -0.010272945
0000f0 b2 5d 9e 3d 17 51 10 bd 3a 32 0b bd b2 82 1e 3d
       0.07732715 -0.035233583 -0.033983447 0.03869886

layer3.weight f4 [2, 64]
000000 17 88 71 3d b4 b7 d4 3d b2 71 f0 3c a2 87 92 3d
       0.058967676 0.10386601 0.02935109 0.07154776
000010 17 51 bc bd b2 69 33 bd e1 63 67 3d d9 b9 a4 3d
       -0.09195154 -0.04380197 0.056491736 0.0804326
000020 ae f0 f7 3d be fc 85 bd 48 52 c0 3d 1e 32 e7 bd
       0.12106453 -0.06542347 0.09390694 -0.11288856
000030 37 6f c0 bd c8 67 98 3d 1b cd fb 3d 56 5a 63 bd
       -0.093962125 0.0744167 0.1229498 -0.055506073
000040 95 e1 37 bd 4d 0b 3b bc 48 e0 92 bb 6b e2 db 3d
       -0.044892866 -0.011416269 -0.004482303 0.10736545
000050 f9 e7 f1 bd 86 12 7b bd d9 93 c6 ba 8d 8a 8e bc
       -0.118118234 -0.061296962 -0.0015150263 -0.01740005
000060 34 a2 56 3d bf d2 b0 bd 66 6d 87 3d cd 2c 3a bd
       0.052400783 -0.086339466 0.06612663 -0.04545288
000070 f8 0a 0b bd 3b ec ff 3b d7 44 88 bd db a9 91 bd
       -0.033946007 0.0078101433 -0.06653755 -0.071124755
000080 1c aa b4 3d 5a ad 94 bd f0 78 9a bc 72 06 25 bd
       0.08821508 -0.07259627 -0.018856496 -0.04028935
000090 c1 b3 00 3d 11 73 b2 bd eb 0d a3 3c 15 7f 11 3d
       0.031421427 -0.087133534 0.019904098 0.035521585
0000a0 04 ed 8e bb 22 99 cc 3d ed 8c ba bc d1 26 cc bd
       -0.0043617506 0.09990145 -0.022772277 -0.09968341
0000b0 e3 d1 5b 3d 24 9d 5c 3d 8c 83 a8 3d 57 a1 35 bc
       0.05366696 0.0538608 0.082282156 -0.01108583
0000c0 8c cb a0 3d d7 4d a8 bc 67 3d d9 bd d6 f2 99 3d
       0.078513235 -0.02054493 -0.10607415 0.075170204
0000d0 18 e8 36 bb de a2 de bd 10 72 e0 bd 83 d2 36 3d
       -0.0027909335 -0.10870908 -0.10959256 0.044634353
0000e0 fc 0a 03 bd 37 3b c6 bd 0d bb f6 3d dd 06 d3 bd
       -0.031992897 -0.09679263 0.12047396 -0.103040434
0000f0 9e 60 02 be 19 b1 4a bd 55 00 d9 bd db 6c e7 bc
       -0.12732169 -0.0494853 -0.105957665 -0.028250149
000100 82 ed ba bd 70 b7 cf 3d 7a 7b de bd d9 58 39 3b
       -0.09127332 0.1014241 -0.10863395 0.0028281717
000110 1d c5 c1 3d 3e 24 b8 3d 7d 2d 95 3c 9f fd b2 bd
       0.094614245 0.08991288 0.018210167 -0.08739781
000120 26 02 72 bb 91 09 86 3c db 21 5d 3d 5f 86 72 3c
       -0.003692755 0.016361983 0.053987365 0.014802544
000130 ee 42 87 bc 46 44 09 bd 4f 3a f4 3d 82 0c b8 bc
       -0.016511407 -0.033512376 0.11925184 -0.022466902
000140 16 a9 d3 bd bf 1b cc bd 49 15 90 3d 81 b5 fc 3d
       -0.10334985 -0.0996623 0.0703531 0.123393066
000150 c4 04 a8 bc 0a cc 87 bd 8c 22 7e 3d 4d 89 c9 3c
       -0.020510085 -0.06630714 0.062044665 0.024601603
000160 58 da c1 3d 17 8d 81 bd ac 51 cf bd 3f b4 0a bc
       0.09465474 -0.06325739 -0.101229995 -0.008465826
000170 00 3e 30 bd b1 8b d8 bd 30 68 e0 bc 69 40 b8 bc
       -0.043027878 -0.10573519 -0.02739343 -0.02249165
000180 a9 d4 2a 3c d2 42 71 bd 15 07 f3 bd f6 12 30 3d
       0.010426679 -0.058901615 -0.11866585 0.042986833
000190 2f 64 34 bd 82 a3 31 bc f7 26 a8 3d 1e d9 8f bd
       -0.044040855 -0.010842206 0.08210557 -0.07023834
0001a0 2f ec f2 3d 88 bf bc bd fa 49 29 bd e2 8a 28 bd
       0.11861455 -0.09216219 -0.041330315 -0.041148074
0001b0 48 cc 16 3d e3 41 91 3d c8 f6 bd bd 77 11 63 3c
       0.03681591 0.07092645 -0.092755854 0.013859144
0001c0 29 47 2d 3d 16 05 4f 3d f5 73 c7 3d 94 d7 19 bd
       0.04230419 0.05054196 0.09738914 -0.037559107
0001d0 06 d8 cf 3d a6 0c c5 bc 1d b9 fc bc 47 e8 01 bd
       0.10148625 -0.024053883 -0.030849988 -0.031715658
0001e0 68 40 c2 3d 88 40 34 3d c0 a5 33 bd ff 7e a0 bd
       0.09484941 0.044006854 -0.043859243 -0.078367226
0001f0 b6 27 93 bd f5 96 6c bd 1b 4f f0 bd 2a 87 b7 3d
       -0.07185309 -0.05776115 -0.11733838 0.089613274

layer3.bias f4 [2]
000000 d3 b9 b7 bd 60 cb 0e bd
       -0.0897099 -0.034861922
