smriti_model.pth (torch, 94606 bytes, 16 tensors)

layer1.weight f4 [128, 66]
000000 5d 68 7a bd f4 30 ba 3d 07 21 df bd 45 07 aa bd
       -0.061134685 0.09091368 -0.10894971 -0.08302168
000010 90 df 2c 3c 0d ee 91 3c 12 cc 81 3d 13 c0 c5 bc
       0.010551348 0.017813707 0.063377514 -0.02413944
000020 df ac d0 3d bd 3e f4 3d a9 65 94 bc 6e 36 b9 bd
       0.101892225 0.11926029 -0.018114882 -0.09043585
000030 59 6f 91 bd 47 a6 c6 bd fa 44 06 bd 6e ee 83 3c
       -0.07101316 -0.09699684 -0.032780625 0.016104903
000040 de 4a 13 bd f1 a9 0f b8 f2 ec fa 3c 3c 7c fd 3c
       -0.03596007 -3.4252127e-05 0.030630562 0.030943029
000050 8c 20 8e 3d 22 e1 94 bc 4b e1 71 bb 96 fc 5e bc
       0.069398016 -0.018173758 -0.0036907967 -0.013610026
000060 ac f9 df 3d 0e ec de 3d b6 72 c8 3c cb 88 17 3d
       0.10936293 0.108848676 0.024468761 0.03699569
000070 d5 72 e6 bd eb 94 3f bd e8 8f c6 3c af 92 25 3d
       -0.11252371 -0.04677288 0.024238542 0.04042309
000080 00 d3 98 bc 06 e6 9d bd 02 d8 05 bd 42 f4 97 3d
       -0.0186553 -0.07709889 -0.032676704 0.07419635
000090 b0 57 fb bd 46 2f 19 bd b4 fc c0 3d 9a f9 d1 bd
       -0.122725844 -0.0373986 0.09423199 -0.10252686
0000a0 02 42 09 bd d4 34 d9 3d 47 f7 f5 bb 8d 5f aa 3d
       -0.033510216 0.10605779 -0.0075062844 0.08319006
0000b0 f4 47 5c 3d ed 4e f7 3c ab cc 53 3d a2 ef 85 3d
       0.053779557 0.030189002 0.05170886 0.06539847
0000c0 bf 3a 8a bd e5 6c 57 bd d2 ad f0 3c d0 80 0b be
       -0.06749486 -0.052594084 0.029379759 -0.13623357
0000d0 3d a5 c7 3d 2b ae 96 3d aa 30 b3 bc 95 be b8 bb
       0.097483136 0.07357439 -0.02187379 -0.0056379535
0000e0 80 e4 8c 3d 70 6f fc bd b3 31 88 bd 6b 30 69 3c
       0.068795204 -0.123259425 -0.066501044 0.014232735
0000f0 26 00 da bd ba 6f e5 3b 99 bd ff bd bb 6d b0 bd
       -0.106445596 0.0070018442 -0.12487335 -0.086146794
000100 5f d0 8e bd 5c d5 5b 3d 0c 3b b8 bc 8e b1 2d bd
       -0.069733374 0.053670272 -0.022489093 -0.042405657
000110 22 f9 a6 bb af 17 03 be 2b ee f4 3d 85 85 20 bd
       -0.005095617 -0.12802003 0.119594894 -0.039189834
000120 a6 aa 92 3d 60 f1 87 bd db d5 9f 3d c2 2b ba 3c
       0.07161455 -0.066378355 0.078044616 0.022725943
000130 03 51 ea bd f5 dd 92 3d 77 f9 f7 bd 15 96 b1 3d
       -0.11441233 0.07171241 -0.121081285 0.08671204
000140 1e 95 f6 bc c4 58 98 bc 4c f1 3b bd 4a 3f 94 3d
       -0.030100401 -0.018597014 -0.045884416 0.07238634
000150 c0 53 19 be fd 30 26 3d 99 8a 2a 3e 9e 8b d3 3c
       -0.14973354 0.040574063 0.16654433 0.02582341
000160 5b 97 c6 bd 54 18 5f bc ff 00 b0 3d 12 23 bc 3d
       -0.096968375 -0.01361664 0.0859394 0.09186377
000170 4d d3 e6 bd 6b 19 72 bd 7f ca 47 bd 9f 37 4e 3c
       -0.11270771 -0.05910627 -0.0487771 0.012586503
000180 88 2c 15 bd 21 16 b8 bd bd 4b b9 bd 76 04 29 3c
       -0.03641942 -0.08988596 -0.09047649 0.010316005
000190 73 f2 86 bc 5a e2 87 3d 98 fb d0 bd ff f6 f9 3d
       -0.01647303 0.0663497 -0.10204238 0.12205314
0001a0 ac 40 f9 bd c9 61 c0 3c cd fe c6 bc eb 6f 2f bb
       -0.12170538 0.023484128 -0.02429142 -0.002676959
0001b0 45 5f d9 3d 58 63 32 bd 4f d4 b0 bd 09 c4 72 bd
       0.10613874 -0.043551773 -0.08634245 -0.059268985
0001c0 c8 a0 ac bd 0d 82 3d bd 44 08 c6 3d 3b 0a c0 bd
       -0.08429104 -0.046266604 0.09669545 -0.09376951
0001d0 f5 1f 0f 3d ee 43 a2 bd 1e 3a 8a 3d 68 6b 64 bd
       0.034942586 -0.07923113 0.06749366 -0.055766493
0001e0 a6 9c 5c 3c 89 ba 55 3d 40 2e 50 3d 3e 01 a3 bd
       0.013465082 0.052179847 0.050825357 -0.07959221
0001f0 0c aa d0 3d 96 18 99 bc 3f b6 d7 bd e0 0a b2 3d
       0.10188684 -0.018688481 -0.105328076 0.086934805
000200 45 6c 28 bd 68 91 e0 bd ce e2 34 3d 6d 64 64 bd
       -0.04111888 -0.10965234 0.04416161 -0.055759836
000210 3a 75 2f 3d eb 45 8c 3d d5 3b 3b bd a9 fa 56 3d
       0.042836405 0.06849273 -0.045711357 0.052485142
000220 c3 98 b4 bd ea ca e5 bd c4 83 97 bd 1b 51 dd bd
       -0.088181995 -0.112203434 -0.07398179 -0.10806485
000230 8d b6 bb 3d 61 5e 76 3c c7 22 e3 3d 7d f3 5f bd
       0.09165678 0.01503715 0.110906176 -0.054675568
000240 70 9a fb bd 89 d5 0e bd dc dd 82 3d 73 76 a2 ba
       -0.12285316 -0.03487161 0.063899726 -0.001239492
000250 4b 43 f8 3b ee 50 06 be 9f a7 ff bc 2c 21 35 bb
       0.0075763813 -0.1311681 -0.031207858 -0.002763818
000260 b3 38 ab 3d b2 68 6a 3d 4d 9c 3d bd 71 b4 db bd
       0.08360424 0.05722875 -0.04629164 -0.10727776
000270 51 7c 1e bd 24 5e 65 3d ce d4 74 3d 8e 6a 68 bd
       -0.038692776 0.055997983 0.05977326 -0.056742243
000280 43 39 77 bc ca 04 b0 3d f6 67 d2 3a f5 61 80 3d
       -0.015089336 0.085946634 0.0016052711 0.06268684
000290 36 4b 2e 3d 3b 1e 00 3e f0 3c 81 3d 34 a1 9f 3b
       0.042552195 0.12511532 0.06310451 0.004871512
0002a0 40 01 ec bc cb 4f 90 3d 18 52 7c 3d d1 cb a0 bc
       -0.02880919 0.07046469 0.06160173 -0.019628437
0002b0 cf 52 9b 3d 3e 9e e5 bb 1d 77 ec ba 15 ef c9 bd
       0.07584154 -0.0070073893 -0.001804087 -0.098600544
0002c0 d5 71 e0 bc 6a 4d d9 3d 87 87 92 3d fc 54 ea 3d
       -0.02739803 0.10610469 0.07154756 0.11441991
0002d0 97 21 40 3d 7f 8a 89 3c b8 58 9e bd 52 67 bd 3d
       0.046907034 0.016789673 -0.077317655 0.092482224
0002e0 1a 09 a4 3d b2 df 5b bd a2 1f de 3c a0 ac 0d be
       0.080095485 -0.05368013 0.027114693 -0.13835382
0002f0 44 04 81 3d c8 f2 7d bd b6 df b0 3d 57 50 02 3d
       0.06299642 -0.061999112 0.086364195 0.0318149
000300 99 93 03 bd 98 13 29 3d 88 fa 8d bd c2 29 f0 bc
       -0.032123182 0.04127845 -0.06932551 -0.029316787
000310 d6 9b a5 bd 54 66 bd bc 82 f2 a1 bd ac 3d 65 3d
       -0.08086364 -0.023120083 -0.07907583 0.055967018
000320 62 5e 09 be 3d 81 92 bd 93 26 95 bd ca 58 ac 3d
       -0.1341491 -0.071535565 -0.07282748 0.08415373
000330 43 30 1d be 62 df b0 bb 72 ae d3 bd 1d e5 99 bd
       -0.15350442 -0.005397723 -0.10336007 -0.07514403
000340 98 0d e6 3d 48 e8 77 3d 35 9d 49 3d 5a da 9c bd
       0.112330616 0.060524255 0.04922219 -0.07658835
000350 44 20 bf 3d 3d dd 5f bd a0 38 17 3e 1d 53 3a bd
       0.09332326 -0.05465435 0.14767694 -0.04548942
000360 f8 46 78 bc 37 b3 cb 3d 0d 93 0b bd a7 fc 0a be
       -0.015153639 0.09946292 -0.034075785 -0.13572942
000370 d0 f2 7e bd bd 44 7a bd be 21 bc bd 5f 79 bc bd
       -0.062243283 -0.06110071 -0.09186123 -0.09202837
000380 b5 fe b4 3d d3 7e 06 bc 81 45 68 3c 38 29 82 3d
       0.08837644 -0.008208948 0.014176727 0.06355518
000390 47 d8 e8 bb 5a 90 8e bd cf 0b 40 3c 07 74 83 3c
       -0.0071058604 -0.069611266 0.011721565 0.016046537
0003a0 ec fd b6 3c 0b 24 a1 bd fd ae 75 3d b3 ac 1e bd
       0.022337876 -0.07868203 0.059981335 -0.038738918
0003b0 77 20 08 3e c6 a2 77 3c 02 da ed 3d c2 2c d6 3d
       0.13293634 0.015114492 0.11613847 0.104577556
0003c0 62 0d 09 3e ba b0 c1 bd 0f 76 3c bd a5 ea 45 3d
       0.13384011 -0.09457536 -0.046011027 0.048319478
0003d0 5e 30 9e bc 30 85 67 bd 30 c3 b4 bd 49 3e 12 bc
       -0.019310173 -0.056523502 -0.088262916 -0.008925983
0003e0 ca e3 0d 3d 38 14 8f 3b da 0b 96 bd 05 37 96 bd
       0.034641065 0.004366424 -0.07326479 -0.07334713
0003f0 d7 40 c7 3c f3 ce 14 bc f5 6d 89 bd 6a 53 80 3d
       0.02432291 -0.009082544 -0.06710426 0.0626591

layer1.bias f4 [128]
000000 bd ee 83 3d 5f 5d 9e 3d 5e 07 10 3d e1 06 d0 bd
       0.0644202 0.07732653 0.035163276 -0.10157562
000010 eb bc a2 bd 93 61 7f 3c d3 71 73 bd e0 8f 34 3d
       -0.079461895 0.015587228 -0.059434723 0.044082522
000020 db df d3 bd cc ed 5b bc e9 80 1a 3d 9c c9 ba 3d
       -0.103454314 -0.013423394 0.037720595 0.09120485
000030 80 e2 ed bc 73 10 81 3d 3f e9 44 bc 71 40 d7 3c
       -0.029038668 0.063019656 -0.012018501 0.026275845
000040 11 c6 74 bd 86 0e cf bd 6f dd c8 3d ae 68 2e bc
       -0.059759203 -0.10110192 0.0980786 -0.010645075
000050 1c 92 ce 3d 65 33 a6 3d c7 f2 ea 3d bc 82 cc bd
       0.10086462 0.081152715 0.11472087 -0.09985873
000060 d7 19 85 3d cb ce 90 3d a6 3c e8 3d 83 eb 39 bc
       0.06499069 0.07070693 0.11339693 -0.011347654
000070 54 e6 08 3d 7a ec 9d 3d 79 1d e1 3d a3 b1 a7 3d
       0.033422783 0.0771112 0.109919496 0.081881784
000080 ab c5 0c 3d 99 ad db bd ab 28 72 3c a8 8e 50 3d
       0.0343682 -0.107264705 0.014780204 0.050917298
000090 3e db 6c 3d 0d d8 b8 3d 45 4e cf bc 44 41 97 3c
       0.057826273 0.090255834 -0.025305877 0.018463738
0000a0 35 26 bb 3d a3 e2 e7 3d d5 ea f1 3d 2d 51 95 3d
       0.09138147 0.113225244 0.11812369 0.07290874
0000b0 cb dc e7 3c ec 1c c6 3d c2 37 f2 bd eb a6 aa 3d
       0.028303524 0.09673485 -0.11827041 0.08332618
0000c0 ab 8c 01 bd f0 03 8b 3d 2f cb d1 3d 37 42 28 bd
       -0.031628292 0.067878604 0.10243832 -0.041078772
0000d0 82 09 ab bd ca 91 d2 3d 92 4c 48 bc 92 17 bc bd
       -0.08351423 0.10281713 -0.012225287 -0.09184183
0000e0 d1 22 b0 3d 26 63 bb bd a9 d4 ed bd 84 db 9c 3d
       0.08600391 -0.091497704 -0.11612827 0.07659057
0000f0 0f 02 c0 bd ad 95 17 ba 24 56 ad bd 6d 24 b4 3d
       -0.09375393 -0.00057824963 -0.08463696 0.0879601
000100 e8 47 a1 3d 59 61 82 3d 04 64 aa 3d 8b 52 b9 3b
       0.07875043 0.06366224 0.08319858 0.005655592
000110 c5 d5 5a 3d 3e 28 f1 b9 13 98 ba 3a 36 a5 84 3d
       0.053426523 -0.00045997085 0.0014235995 0.06476824
000120 5e e8 9b bd 27 40 8b 3d b6 dc 55 3d ca 02 e9 b9
       -0.0761268 0.067993455 0.05221244 -0.000444433
000130 91 50 48 bd f5 f7 99 3d 76 57 8d 3d 32 20 95 3d
       -0.04890496 0.07517997 0.069014475 0.072815314
000140 d6 ee 94 bd a2 05 a8 3d 8f 72 ae bd f3 98 16 3d
       -0.07272117 0.082041994 -0.08517944 0.036766957
000150 77 31 90 3c ec bf 79 bd af e7 93 bd 85 9e f8 3d
       0.017601712 -0.060974047 -0.072219245 0.1213961
000160 a4 61 c2 3d 87 33 cc bd 62 b0 e5 3d 89 82 eb bc
       0.0949128 -0.099707656 0.11215283 -0.028748767
000170 d3 a2 c1 3d c2 c1 90 3d 97 dc 93 3d 3b 31 b3 3d
       0.094548844 0.07068206 0.072198085 0.08749624
000180 fe d0 98 3d ec c9 e4 3d 75 4f 5e 3b 9f 57 66 bd
       0.07461737 0.11171326 0.0033921872 -0.056235906
000190 8b 8b 57 bc cb a3 3e 3d 5b 09 72 3d 8e 09 b7 bc
       -0.013155828 0.046542924 0.059090953 -0.022343423
0001a0 6f d2 c2 bd 2f 90 ef 3d 9d 22 7d bd d8 ce fb 3d
       -0.09512793 0.11697423 -0.061800588 0.12295312
0001b0 5b 29 80 3d 40 95 e3 bc af da 89 3c 9f ac c2 bd
       0.06257888 -0.027781129 0.01682791 -0.09505581
0001c0 86 a6 92 bd 96 08 c8 bd f4 5c 95 bd ea 63 2a 3c
       -0.07160668 -0.09767263 -0.0729312 0.010399798
0001d0 3e 25 98 bb aa 5a 45 bd 3d 7f 70 3c ad 06 c5 3c
       -0.0046431115 -0.048182167 0.0146787735 0.024051035
0001e0 f3 e3 30 3d 36 09 a9 bd 02 41 ba 3d a7 f2 47 bc
       0.04318614 -0.0825371 0.090944305 -0.012203849
0001f0 2a 07 85 bd 6a 3f a1 3d de 63 d0 3d 57 66 5d bd
       -0.06495507 0.078734234 0.10175298 -0.054052677

bn1.weight f4 [128]
000000 86 8a 79 3f 79 17 80 3f 03 d1 7c 3f 74 7f 83 3f
       0.97476995 1.0007163 0.98756427 1.0273271
000010 d6 91 74 3f a7 27 81 3f f9 06 78 3f fa 16 85 3f
       0.9553503 1.0090226 0.9688564 1.0397637
000020 8f ad 77 3f 6f 63 79 3f 1d dd 79 3f 37 8b 86 3f
       0.96749204 0.9741735 0.9760302 1.0511235
000030 47 c3 76 3f 38 b5 86 3f f8 3a 83 3f 92 9b 75 3f
       0.9639172 1.0524054 1.0252371 0.95940506
000040 59 aa 81 3f b5 a0 82 3f 5f f2 76 3f 13 1c 86 3f
       1.0130111 1.0205294 0.9646358 1.0477318
000050 ac fe 74 3f 82 96 78 3f 20 35 81 3f 6d b9 7b 3f
       0.957011 0.97104657 1.0094337 0.9832981
000060 80 d3 80 3f d2 9a 79 3f fb 3f 77 3f b5 2e 81 3f
       1.0064545 0.9750186 0.96582 1.0092379
000070 10 fe 84 3f 6f e0 7b 3f 5d d4 7d 3f 90 e3 85 3f
       1.0390034 0.98389333 0.99152166 1.0460072
000080 44 51 7d 3f 22 ae 77 3f ad fe 86 3f 02 ca 79 3f
       0.98952127 0.9675008 1.0546471 0.97573864
000090 f7 81 82 3f a8 fb 7c 3f e7 9b 75 3f 7b bc 8e 3f
       1.0195912 0.98821497 0.95941013 1.115127
0000a0 e0 6b 77 3f a2 ee 77 3f 14 5c 79 3f 39 34 78 3f
       0.9664898 0.968485 0.97406125 0.96954685
0000b0 19 51 80 3f f2 44 79 3f de b9 8d 3f 21 99 79 3f
       1.0024749 0.9737083 1.1072347 0.9749928
0000c0 40 eb 7a 3f 50 e2 80 3f 39 b7 82 3f 4c 42 84 3f
       0.98015213 1.0069065 1.0212165 1.0332732
0000d0 6e 01 84 3f 10 80 78 3f 17 52 73 3f b0 26 75 3f
       1.0312936 0.9707041 0.95047134 0.9576216
0000e0 f4 2e 76 3f 51 d4 7a 3f 2b 74 85 3f 88 a2 79 3f
       0.96165395 0.9798022 1.0426077 0.9751363
0000f0 10 a2 7c 3f 12 3d 73 3f b4 cd 82 3f e3 c2 7c 3f
       0.9868479 0.9501506 1.0219026 0.98734874
000100 20 f6 7f 3f ef 2f 7e 3f 13 2b 77 3f b3 ea 79 3f
       0.9998493 0.9929189 0.965501 0.9762375
000110 52 63 76 3f a0 93 78 3f 8a 51 79 3f 58 3e 7d 3f
       0.962453 0.9710026 0.97390044 0.98923254
000120 01 02 80 3f 36 cf 73 3f 86 06 87 3f 21 94 75 3f
       1.0000612 0.95238054 1.0548866 0.9592915
000130 83 14 82 3f a4 e1 78 3f 4c e3 86 3f c7 95 81 3f
       1.016251 0.972193 1.0538116 1.0123833
000140 13 70 7f 3f d3 60 79 3f c4 95 7d 3f 7f d5 7b 3f
       0.99780387 0.9741337 0.9905665 0.98372644
000150 a3 e4 75 3f bc 66 80 3f de 60 72 3f 96 49 7b 3f
       0.96051997 1.0031352 0.9467906 0.9815916
000160 ee 6b 79 3f 41 85 7a 3f 57 7f 79 3f 8d 5c 7a 3f
       0.9743031 0.9785958 0.9745993 0.9779747
000170 fb f9 84 3f 01 4b 83 3f 6b 86 7b 3f 28 68 76 3f
       1.0388788 1.0257264 0.9825198 0.9625268
000180 db 28 79 3f 04 cb 81 3f 20 c4 82 3f 12 7a 78 3f
       0.97327965 1.014008 1.0216103 0.97061265
000190 59 a7 7b 3f 38 65 87 3f 74 d4 7c 3f 37 68 7e 3f
       0.9830223 1.0577765 0.9876168 0.9937777
0001a0 be 9d 82 3f ca 3b 87 3f a5 05 7e 3f 33 02 7c 3f
       1.0204389 1.0565121 0.9922736 0.98440856
0001b0 e6 1d 84 3f 13 18 73 3f ee 4d 81 3f e0 22 81 3f
       1.0321624 0.9495861 1.0101907 1.0088768
0001c0 de bd 87 3f 06 6e 7d 3f 25 b3 7d 3f 42 98 75 3f
       1.0604818 0.9899601 0.9910148 0.9593545
0001d0 70 62 7c 3f 26 96 8b 3f 8b 4c 7a 3f 8e 6f 77 3f
       0.98587704 1.0905197 0.97773045 0.96654594
0001e0 17 36 81 3f 0c 64 81 3f a0 bc 78 3f 61 88 75 3f
       1.0094632 1.0108657 0.9716282 0.9591122
0001f0 86 8e 80 3f 6c cc 77 3f 4a 61 79 3f bb c6 7b 3f
       1.0043495 0.967963 0.97414076 0.98350114

bn1.bias f4 [128]
000000 4a f2 dc bc d3 0c 06 3d b2 cb 8b bc a2 c8 ec 3c
       -0.026971001 0.032727074 -0.017064903 0.028904263
000010 86 4d 0c bd 9c b5 ad 3c a1 91 e3 bc 3e a9 ed 3c
       -0.03425362 0.021204762 -0.027779402 0.029011365
000020 ab d5 05 bd 42 45 5d bc 98 4e 8a bc 59 00 0b 3d
       -0.032674473 -0.013505282 -0.01688318 0.03393588
000030 d1 ea 10 bd 94 d2 06 3d e1 0d 88 3b 08 f3 13 bd
       -0.03538019 0.032915667 0.004152045 -0.036120445
000040 d2 36 e1 3c d3 23 7e 3c 58 c0 80 bb 69 1a 1c 3d
       0.02749196 0.015511471 -0.003929179 0.038111124
000050 fd 2e 0e bd bb 6d b1 bc a7 87 cf 3c 25 6e a5 bc
       -0.03471278 -0.021658769 0.025333239 -0.020194123
000060 20 21 09 3c 8a c5 5e bc cf 9c 8e bc 55 ae 8c 3c
       0.008369714 -0.013596902 -0.017408757 0.017172972
000070 2a 65 08 3d 31 79 0d bc 52 e6 4d bc d2 0f ff 3c
       0.033299603 -0.008634851 -0.01256712 0.031135473
000080 be ea ef bb bc a2 2d bd c3 48 7b 3d 35 25 ab bc
       -0.0073216846 -0.042391524 0.061348688 -0.020891765
000090 b0 ca b7 3c ed 53 46 3c 8b af 1e bd dd b5 a6 3d
       0.022435516 0.01210497 -0.03874163 0.081401564
0000a0 2a 3f f6 bb f8 e7 90 bc 80 a1 40 bc 5e b9 65 bc
       -0.007514854 -0.017688736 -0.011757255 -0.014021246
0000b0 d9 50 53 ba 96 77 6f bc fc 32 e0 3d 28 1f 33 bd
       -0.00080610585 -0.014615914 0.109472245 -0.043730885
0000c0 df c8 12 bc 7c 7b ef bc fa 2a 02 3d ec 6b 0e 3d
       -0.008959024 -0.029233687 0.031779267 0.03477089
0000d0 1d 12 0b 3d 21 40 6e 3a d6 f1 42 bd 90 2a 04 bd
       0.03395282 0.00090885354 -0.047593914 -0.032267153
0000e0 50 7d 5e bc 91 ef 91 bc 91 73 65 3d 27 4c 17 bc
       -0.0135796815 -0.01781443 0.056018416 -0.009234465
0000f0 2a 94 72 3c 70 45 01 bd e5 25 a5 3c 1e 85 99 bb
       0.014805833 -0.03156036 0.020159671 -0.0046850583
000100 fb 58 e5 3b fc 83 2c b9 72 3a b4 bc c6 35 e7 bc
       0.0069991327 -0.00016452366 -0.022000525 -0.028223883
000110 ec fe a4 38 3c 70 98 bc f7 93 e1 bc a5 1d bf 3b
       7.867612e-05 -0.018608205 -0.027536375 0.0058323913
000120 a2 99 46 3c db 6d 20 bd d0 39 3c 3d 27 13 47 bd
       0.01212159 -0.039167266 0.04595357 -0.04860225
000130 28 a8 cf 3c 74 e3 ac bc 6b be 3e 3d 4b 15 11 3d
       0.025348738 -0.021104552 0.046568315 0.035420697
000140 c8 57 97 3c e4 c9 25 bc a8 c4 40 bc 77 4a 8e bc
       0.018474475 -0.010118935 -0.0117656365 -0.017369492
000150 08 9a 07 bd 4d 29 bb 3c 1c 89 6d bd ff 9a 94 ba
       -0.03310588 0.022846842 -0.057992086 -0.0011337696
000160 bd 9b 21 3c b8 51 82 bc 0c 6d 96 bc b7 09 20 bd
       0.009863791 -0.015908107 -0.018362544 -0.039071765
000170 c9 80 4b 3d 1f 58 ac 3c 17 3c 4a bc c9 d1 23 bd
       0.049683366 0.021038113 -0.012343428 -0.03999499
000180 a1 67 d3 3b 54 6d ba bb 57 d1 38 3d a6 df 1a bc
       0.0064515625 -0.0056893025 0.045121517 -0.009452736
000190 bc cb 49 bc 0b 7e 4d 3d 9a ad 0e bc fe 7b bf bc
       -0.0123166405 0.050169032 -0.008708382 -0.023374554
0001a0 52 24 82 3c 8d 74 3b 3d 49 b4 2c bc 19 78 c3 bc
       0.01588646 0.04576545 -0.01054103 -0.023860978
0001b0 b7 e9 1b 3d 6b 02 2f bd f5 14 21 3b 24 14 5f 3c
       0.038064685 -0.042726915 0.0024579142 0.013615642
0001c0 fe a3 2e 3d 70 32 9b 3c 63 65 c8 3b d0 89 b6 bc
       0.042636864 0.018944949 0.006115602 -0.022282511
0001d0 5c db be 3b e6 a4 5c 3d fb b9 b3 3b a2 dc 0e bd
       0.0058244895 0.053868197 0.005484817 -0.03487838
0001e0 63 3b c4 3c da 51 e8 3c 52 97 29 bc 4b d1 4c bd
       0.023954099 0.028359342 -0.010351019 -0.050004285
0001f0 67 46 b0 3c 83 96 fd bc 03 54 13 bc 2c ba 54 bc
       0.021517945 -0.030955559 -0.008992198 -0.01298384

bn1.running_mean f4 [128]
000000 6b 1e 94 c2 1c ed 44 42 b0 14 c3 c2 3d 72 cb 42
       -74.05941 49.231552 -97.540405 101.72312
000010 96 66 f3 c2 9f ff 7b 41 bc 31 38 42 3e d8 9b c1
       -121.70036 15.7499075 46.04857 -19.480587
000020 bf e4 2d c3 1a 49 e9 c2 94 18 3f c3 3b 07 9d c1
       -173.89354 -116.64278 -191.09601 -19.62853
000030 96 87 f8 c1 f6 5f 0c c2 0b 86 da c0 d6 5c 12 43
       -31.066204 -35.09371 -6.8288627 146.36264
000040 8f 94 a2 c1 7e 77 70 c1 52 78 36 c2 8f cf 9d c1
       -20.322538 -15.029173 -45.6175 -19.726347
000050 d5 4f b4 c2 b1 d1 ec 41 9f e3 8d 42 43 f8 21 c3
       -90.15592 29.602388 70.94457 -161.96977
000060 cf 5b ca c1 2e 23 ab c1 c9 03 af c2 af 45 db c0
       -25.294828 -21.392178 -87.50739 -6.8522563
000070 ff 9f 9f c2 46 30 24 42 42 a6 37 c3 72 22 a5 3e
       -79.81249 41.047142 -183.64944 0.32252842
000080 fb 4a 55 40 5d 1a 03 43 4f 66 a7 41 c9 15 1c c3
       3.3327014 131.10298 20.924955 -156.0851
000090 22 4c 72 c0 4a fd 7a c1 50 4f cf 3f b4 f4 b2 c1
       -3.7858968 -15.686838 1.6196079 -22.369484
0000a0 51 67 51 c1 05 58 34 43 c3 17 cd 41 4a f9 df c1
       -13.087724 180.34383 25.636602 -27.996723
0000b0 48 0e 05 43 92 47 04 c3 66 2f c6 41 28 5c 1f 43
       133.05579 -132.27957 24.773144 159.35999
0000c0 a2 38 2c 43 8d 63 eb c2 b0 2a 10 42 80 9a b4 c1
       172.22122 -117.694435 36.041687 -22.57544
0000d0 03 96 8a c1 03 00 47 c3 42 08 72 42 b7 f2 a3 42
       -17.323248 -199.00005 60.508064 81.97405
0000e0 4e 75 09 c3 b0 89 b6 42 be f5 97 c1 ee 1a 09 42
       -137.45822 91.26892 -18.994991 34.2763
0000f0 88 b6 80 c2 a4 b8 92 c2 98 67 0d c1 d0 8a df c2
       -64.35651 -73.36063 -8.837791 -111.77112
000100 a1 ec 88 c2 23 61 af 42 28 ac 98 42 fb 11 e3 42
       -68.462166 87.68972 76.33624 113.53512
000110 a0 93 cd c2 07 f2 39 42 3b 7f 2b 41 bd 9d 48 42
       -102.78833 46.486355 10.718562 50.15404
000120 d1 86 4e 42 03 23 30 c3 1f fc 91 c1 6e b8 d1 c2
       51.631657 -176.13676 -18.248106 -104.860214
000130 ee 5e 96 42 b4 c2 1a c2 c5 53 39 c1 80 4f 6b 42
       75.18541 -38.69014 -11.582952 58.827637
000140 bc 02 cf c1 54 63 ea c2 fd 5e 36 c2 3d ac d1 42
       -25.876335 -117.194 -45.592762 104.8364
000150 72 bb 49 43 d1 85 b7 41 f0 f2 d5 42 66 51 88 42
       201.73221 22.94034 106.97449 68.15898
000160 fa 00 e1 c1 d2 24 70 c2 aa 23 be 42 e4 2e ab 42
       -28.125477 -60.035957 95.06966 85.59158
000170 1a a2 15 41 64 c5 48 42 78 e5 18 c2 2e 10 89 42
       9.352076 50.192764 -38.22409 68.5316
000180 52 21 da bf ee f5 49 c2 24 81 f5 3e 46 72 97 41
       -1.7041419 -50.490166 0.4795009 18.930798
000190 df 87 50 42 4c ff 16 c2 08 99 03 42 75 d2 dd c2
       52.132687 -37.749313 32.899445 -110.91105
0001a0 96 71 75 42 56 ee 02 c1 c9 d1 1a c2 c7 0d 34 c3
       61.360924 -8.1831875 -38.70487 -180.05382
0001b0 61 e9 da 41 c6 c8 15 3f ce d2 15 42 cb e4 ee c1
       27.363955 0.5850948 37.455864 -29.861715
0001c0 2e 56 75 c1 7f 28 7b c1 fa da a7 c2 ab 62 7c c1
       -15.33354 -15.697387 -83.92769 -15.774089
0001d0 b5 de 45 42 db 52 ed 40 27 90 9b c2 f0 b7 77 42
       49.467487 7.416364 -77.78155 61.929626
0001e0 77 cc b4 42 ac a0 5f c0 ef 55 a0 c1 ec 61 3a 43
       90.399345 -3.4941816 -20.04196 186.3825
0001f0 9d 70 26 42 6d 6b f5 42 3e 73 aa c2 95 12 a6 42
       41.609974 122.709816 -85.22508 83.03629

bn1.running_var f4 [128]
000000 1b 02 41 43 5e c3 1a 42 bb 90 3d 43 1a 16 4c 42
       193.00822 38.69079 189.56535 51.021584
000010 05 6b e5 42 ce 5e 93 42 b8 c6 0e 42 ad 79 04 42
       114.70902 73.685165 35.69406 33.118824
000020 2a 65 94 43 c6 24 b6 42 4f f3 42 43 6e 5c 75 42
       296.79034 91.07182 194.95042 61.340263
000030 dd 74 d6 42 59 68 34 42 fd 88 bd 42 12 ae 2d 43
       107.22825 45.101902 94.767555 173.67996
000040 23 8f 2c 42 88 71 28 42 d5 e2 ee 42 61 da e5 41
       43.139782 42.11087 119.44303 28.73163
000050 b1 15 5e 43 84 19 0a 43 c0 7d f7 41 47 57 64 43
       222.08473 138.09967 30.936401 228.34093
000060 dc 1c 4e 42 f7 eb 23 42 32 46 ec 41 ca 6b e8 42
       51.528183 40.980434 29.534275 116.210526
000070 00 0a 56 42 f1 5f 07 43 76 ab 2e 43 08 4c 21 42
       53.509766 135.37477 174.66977 40.32425
000080 a0 11 a9 42 fc 14 a2 43 47 f6 96 41 f8 51 30 43
       84.534424 324.16394 18.870253 176.32019
000090 40 aa 44 42 12 bf ce 42 01 e5 1e 42 1c e1 cf 41
       49.16626 103.373184 39.723637 25.984917
0000a0 a6 a6 d0 42 f6 2e 87 43 fb c7 77 41 56 d2 6c 42
       104.325485 270.36688 15.486323 59.205406
0000b0 05 65 21 43 0b 3d c2 43 55 a6 a8 41 df f6 4f 43
       161.3946 388.4769 21.081217 207.96434
0000c0 73 a9 24 43 5c 1a 9f 42 0e 4a 61 42 7d 47 fa 41
       164.66191 79.55148 56.32232 31.284906
0000d0 c6 14 8d 42 c9 12 92 43 ea aa c7 42 99 ad c9 42
       70.54057 292.14676 99.83382 100.83906
0000e0 85 eb 1d 43 c2 7b 82 43 bb 91 a8 41 dd c8 ab 42
       157.92 260.96686 21.071157 85.89231
0000f0 e7 50 0b 43 a5 4d 65 43 ca 86 4e 41 db ed 32 43
       139.31602 229.3033 12.9079075 178.92912
000100 c7 f5 92 42 01 ef 8d 43 78 fa 06 43 df 5b 86 43
       73.480034 283.86722 134.9784 268.71774
000110 b8 b1 5e 43 6e 2e 2a 42 95 ff a4 42 ab 23 81 43
       222.69421 42.54534 82.49918 258.27866
000120 26 69 e3 41 51 04 0e 43 69 44 8e 41 29 1a 95 42
       28.426342 142.01686 17.783403 74.551094
000130 e2 ef 0e 42 66 6d 14 42 e7 f7 f8 41 0a 61 00 42
       35.73426 37.106834 31.121046 32.094765
000140 4b 8a 21 43 99 51 c3 43 33 0f e9 41 e7 73 18 42
       161.5402 390.63748 29.132421 38.113186
000150 c4 8d ac 43 da d9 b5 41 37 39 3c 43 3b 43 c9 42
       345.10754 22.731373 188.2235 100.63131
000160 23 fb 34 42 4d 18 c2 43 37 21 68 43 e4 b2 ab 43
       45.24525 388.18985 232.12975 343.39758
000170 01 1b bc 41 68 80 59 42 82 6e 33 43 77 33 e9 41
       23.513186 54.375397 179.43167 29.15013
000180 b4 c4 ee 42 ad 2a 9e 41 51 fb 08 42 44 33 f3 42
       119.384186 19.770838 34.245426 121.60013
000190 14 22 1f 43 f2 f8 fe 41 b8 90 ef 41 fe 26 9c 43
       159.13312 31.871555 29.945663 312.30463
0001a0 20 c5 b4 42 ce 2b 24 42 18 3e de 41 a7 00 b5 43
       90.38501 41.042778 27.78032 362.0051
0001b0 b6 41 24 42 eb 07 c0 42 74 04 e0 41 e8 8b dd 42
       41.06417 96.015465 28.002174 110.773254
0001c0 27 7e 8d 41 a1 0e a2 42 d2 25 32 43 70 03 21 42
       17.686598 81.02857 178.14774 40.253357
0001d0 8e 9f 1c 42 b3 9e 2f 41 cf d3 86 42 99 53 a8 42
       39.155815 10.976245 67.41369 84.16328
0001e0 be aa 31 43 c4 40 34 42 e2 90 4b 42 cb ff eb 43
       177.66696 45.063248 50.891487 471.99838
0001f0 c1 9f 1d 42 f3 b5 a9 43 55 90 d6 42 c6 b4 0d 43
       39.40601 339.42148 107.2819 141.70615

layer2.weight f4 [64, 128]
000000 7d 46 71 3d 3e 04 c1 bc 6f 1d 8e bd d8 d9 57 bd
       0.058905113 -0.023561593 -0.06939208 -0.052697986
000010 76 3f 17 bd 80 14 ac 3d 55 f0 b1 bd d2 ab b3 3c
       -0.036925755 0.084023476 -0.08688418 0.021932516
000020 93 f8 26 3c 2a 3c 5d 3d 30 a9 58 3d 7b 8a c5 3b
       0.010191101 0.054012455 0.052895725 0.006028471
000030 f2 82 cd 38 e8 d7 d8 3d 77 b8 37 3c 54 cd 73 bd
       9.799552e-05 0.10588056 0.011213413 -0.059521988
000040 2b c0 1b bd b1 ae 2e 3d 5a d3 e0 bc 35 cb a7 bb
       -0.038025063 0.042647067 -0.02744453 -0.0051206597
000050 86 7c 1f 3d 45 c3 f6 bc 5b ae fc bc 67 51 07 bd
       0.038937114 -0.030122409 -0.030844858 -0.033036616
000060 61 41 b0 3d 13 c3 08 3d 32 b0 be 3b 5d fd 5d bd
       0.0860622 0.033389162 0.005819344 -0.054196704
000070 39 10 08 3d 7e 70 66 3d d9 f4 b4 bd dc ad 4e bd
       0.033218596 0.056259625 -0.088357635 -0.050458774
000080 a2 54 78 bd 2e bc 05 3c bc f9 70 3d 4f 93 de 3c
       -0.060627587 0.008162541 0.058831915 0.027169852
000090 cd c6 72 3d 5d c6 19 3d e6 cb 9b 3a 9a 37 6b bd
       0.059271622 0.03754269 0.0011886328 -0.057426073
0000a0 e7 08 81 3d ee 8c b4 3c e0 d0 8e 3b c4 d0 fa 3c
       0.06300526 0.022039857 0.004358396 0.030617125
0000b0 8a 09 39 bd a2 63 3c bd 22 6b 8b bd d3 26 ec 3c
       -0.045175113 -0.045993455 -0.06807543 0.028827107
0000c0 29 46 23 bd d6 65 26 bd 11 79 97 bc c8 1a 0c 3d
       -0.03986183 -0.040624462 -0.018490346 0.034205228
0000d0 55 c3 a1 bd dc 87 87 3d a0 cc 0c bc 90 02 d7 3c
       -0.07898585 0.0661771 -0.008593708 0.02624634
0000e0 ef 23 a7 bc 21 c7 67 3d ff 80 84 3b c4 06 95 bd
       -0.020402877 0.05658639 0.004043698 -0.07276681
0000f0 6d 79 94 bd 7c 48 a6 bd 85 18 00 bd d9 b7 0a 3c
       -0.07249723 -0.08119294 -0.031273384 0.008466684
000100 ac 4e 80 3d 4b 3a d4 3c 98 3d 09 3d 92 b9 58 3c
       0.062650055 0.025906703 0.033506006 0.013227837
000110 f1 5b a3 3b 52 9f 86 3d f6 67 3a bd 88 81 a8 bd
       0.0049853255 0.06573357 -0.0455093 -0.08227831
000120 af ff 83 bd 30 78 68 3d d4 37 f1 3c 98 3f 8c bd
       -0.06445252 0.056755245 0.029445566 -0.06848067
000130 24 a0 af bc 4b fe 1e bc 77 7d 00 bd a4 83 a9 bd
       -0.021438666 -0.009704183 -0.031369653 -0.082770616
000140 10 59 97 bd 99 6a a0 bc 58 ae f2 3d ee 6a 0f bb
       -0.07390034 -0.01958208 0.1184966 -0.0021883803
000150 c1 31 8b 3d e7 25 87 3b 6e d7 25 3d b8 c2 3e bc
       0.06796599 0.0041243914 0.040488653 -0.011643104
000160 5f 9c 1b 3c 80 cc 10 bd 1e ca 8a bc da ab 58 bd
       0.009497731 -0.035351276 -0.01694208 -0.052898265
000170 17 56 1e 3d df 7e bc bd 26 7c 81 bd f2 56 4d bd
       0.03865632 -0.09203886 -0.063225076 -0.050131746
000180 5a 14 9a bc 48 ad 47 3d 65 d2 b1 3c ec 94 95 3d
       -0.018808533 0.04874924 0.02170677 0.07303795
000190 9b df bc 3d d5 08 6c bb 2c 34 01 bd d4 a9 4d bd
       0.09222337 -0.0036016006 -0.031543896 -0.05021079
0001a0 7e 9b 3d 3c 12 7b 89 3d 52 79 51 3d 21 f6 80 bd
       0.011572717 0.06712927 0.05114109 -0.06296945
0001b0 be a4 93 3d d6 c1 6b 3c 33 b9 1f 3d 5e 00 34 3d
       0.072091565 0.014389476 0.03899498 0.043945663
0001c0 56 a3 c6 bd 8b 02 fa 3a 67 e2 68 bb e9 52 8b 3d
       -0.096991226 0.0019074244 -0.0035535337 0.06802923
0001d0 29 25 52 3d fc 57 7a bd 06 26 cc 3d 99 47 1c bd
       0.05130497 -0.061119065 0.0996819 -0.03815422
0001e0 25 f3 15 3d 1b 83 6b bd 0b 8c 3d 3c f4 3c e4 ba
       0.036608834 -0.05749808 0.011569033 -0.0017413185
0001f0 f2 2f 07 bc c5 a3 9d b7 3f 49 93 bd e8 ce 87 bd
       -0.008251177 -1.879212e-05 -0.07191705 -0.06631261
000200 f1 95 ad bd b6 92 8b 3d 68 24 c5 bd 38 8c 96 bd
       -0.08475865 0.06815092 -0.096260846 -0.07350963
000210 a8 fc ee 3b 22 04 53 3d 57 d7 8a bd 1e 40 33 bb
       0.0072933026 0.051517613 -0.06779354 -0.002735145
000220 8c fe d3 bb 70 35 07 bd 4e 23 8c bd 0e 4e 68 bd
       -0.0064695533 -0.033009946 -0.06842671 -0.056715064
000230 45 ef ec bc d6 a9 ec bb 87 8c 97 bd f8 9b f8 bb
       -0.028922686 -0.0072223945 -0.0739985 -0.0075869523
000240 af 4b a1 bd 23 a9 d2 bc 56 7b 7c bd 9f 73 8a 3d
       -0.078757636 -0.025715416 -0.06164106 0.06760334
000250 99 fe ef 3c 24 24 2f bd d0 96 34 bd 8d 05 6d 3c
       0.029296206 -0.042759076 -0.04408914 0.014466655
000260 6b a7 c0 3a 38 1f 67 3d c2 33 62 3d 2c ac 04 bd
       0.0014698332 0.056426257 0.05522514 -0.03239076
000270 fe 3c ea bc 43 82 d0 bc 69 37 9c bd 88 41 bf bc
       -0.028593536 -0.025452739 -0.07627756 -0.023346677
000280 da f8 1e 3d 7b 59 89 3d b1 7d 3b 3d c5 c0 81 bd
       0.038811542 0.0670652 0.045774166 -0.06335596
000290 37 a0 ba 3d f8 59 85 3d d2 65 26 3d ca 4b 8b 39
       0.0911259 0.06511301 0.040624447 0.00026568613
0002a0 d8 e6 53 bd 40 4a fe bb b8 4e 98 3d 10 37 32 3d
       -0.05173382 -0.007760316 0.074368894 0.043509543
0002b0 37 dd 77 ba df 1c b9 3c c5 66 99 bd 25 a6 49 bd
       -0.0009455266 0.022596775 -0.07490305 -0.049230713
0002c0 a9 8b 41 3d ae b7 23 bd 22 2a 50 3c 89 8a e0 3d
       0.04725233 -0.039970092 0.012705358 0.109639235
0002d0 c2 d6 a5 bc 98 20 92 bd 1f 2b a2 bc ea 34 1e 3d
       -0.020244006 -0.07135123 -0.019795952 0.03862468
0002e0 8c d5 a1 3c 8c 02 8d 3d ac 14 8b 3d fe fa b6 bd
       0.019755147 0.068852514 0.06791052 -0.08934592
0002f0 40 a8 30 3c 6b 3a 8a 3d 5d 89 59 bc 74 31 6e 3d
       0.010782301 0.067494236 -0.013277379 0.05815263
000300 45 26 be 3c 31 91 d9 bc 93 7e 92 bd 11 52 66 3d
       0.023211608 -0.02655849 -0.07153048 0.05623061
000310 89 8d 4b 3d c6 92 2b 3d c9 69 85 3d 3a 9a 2c bc
       0.049695525 0.04188802 0.065143175 -0.010534817
000320 e5 5a 0b bd c1 93 0e 3d 60 0f 82 3d bc 50 ab bb
       -0.03402223 0.034808878 0.06350589 -0.00522813
000330 bb a8 8e 3b 4e 85 50 bd a9 b8 a8 3d a8 b7 1d bd
       0.0043536103 -0.05090838 0.08238346 -0.038505226
000340 83 88 cb bc e1 ac e1 ba c4 0c b4 3d 9c 50 d5 37
       -0.024845367 -0.001721766 0.08791497 2.5429115e-05
000350 43 0d 5d bd 14 c7 63 bc b5 34 b1 bd f1 8c cb b9
       -0.053967725 -0.013902444 -0.08652631 -0.00038824187
000360 12 00 27 3d ca c9 90 bd ad e0 5f bd f9 1a d4 3c
       0.04077155 -0.07069738 -0.054657627 0.025891768
000370 3b 95 38 bd e7 ef 90 bc 2b 9f 31 bd 83 93 a1 bd
       -0.045064192 -0.01769252 -0.043364685 -0.07889464
000380 52 03 9a 3b c6 e7 05 3d f5 d1 e1 bb 37 84 bf 3c
       0.004700103 0.03269174 -0.006891484 0.023378475
000390 00 68 e6 b9 e2 75 2b 3d c1 2f f8 3b 84 ee f0 3c
       -0.00043946505 0.04186047 0.007574052 0.029410608
0003a0 07 38 50 3d 77 3b 57 3d 13 be 7c 3d f6 75 10 bd
       0.05083468 0.052546944 0.061704706 -0.035268746
0003b0 f3 98 0b bd 44 95 68 bc cc f7 5f bd fa 82 d9 3d
       -0.03408141 -0.014195744 -0.054679677 0.10620685
0003c0 09 3f a2 bd f1 2a b4 bd 0b 32 39 3d 31 66 c2 bc
       -0.07922179 -0.08797253 0.04521374 -0.02373037
0003d0 d0 de 50 bd 57 b7 4a 3c e5 8b e6 bc 5f 31 42 bd
       -0.05099374 0.012372813 -0.028142879 -0.047410365
0003e0 10 d1 b2 bc f5 09 30 bd 3e ae bd bc 93 6e 95 3c
       -0.021828204 -0.042978246 -0.023154374 0.018241202
0003f0 df e5 89 3c 7c c7 4c bd ae 55 38 3d 13 85 97 bc
       0.016833244 -0.04999493 0.045003586 -0.018496072

layer2.bias f4 [64]
000000 c8 c2 53 bd 5e 69 7b bd 17 67 67 3d 3e f1 3c bc
       -0.05169943 -0.061379783 0.0564948 -0.011532126
000010 a6 2b 2d bd 26 01 7d bd f5 1f 5f 3c e2 98 be bb
       -0.042277955 -0.061768673 0.013618459 -0.005816565
000020 0c ff d0 3c d9 0f 92 bd 28 07 a0 3d 3f 33 9d bb
       0.02551224 -0.07131929 0.07813865 -0.004797369
000030 95 6a e3 3b f9 77 58 3d 46 91 03 3d 88 d0 bc 3c
       0.006940196 0.05284879 0.032120965 0.023048654
000040 d9 ba 9c bd d8 08 04 bd 6d fa 00 3d 2a fa 23 3d
       -0.07652826 -0.032234997 0.031488825 0.040033497
000050 6e 80 74 3d fc 11 c1 3b e3 55 d0 bc 42 9b 74 39
       0.059692793 0.0058920365 -0.025431579 0.00023327491
000060 50 53 2c 3a da 02 c0 bc 10 f9 4a bd 3d 51 af 3d
       0.0006573694 -0.02343886 -0.04955393 0.08560417
000070 9a 34 04 3d 55 f9 21 bd 0e b7 ad bc e3 a0 bf bc
       0.032276727 -0.039544422 -0.021205451 -0.023392146
000080 e2 3a 84 3d d3 bc 96 3d 45 f9 ae bd 5b 5a 68 bc
       0.064565435 0.07360234 -0.08543638 -0.014181699
000090 04 f2 4e 3d 20 16 a9 3d b0 27 0d bb c3 09 47 bc
       0.050523773 0.08256173 -0.0021538548 -0.0121483235
0000a0 47 43 b0 bc 8d ee 3d bd a6 d6 3b 3b 33 d9 c3 3c
       -0.021516455 -0.046370078 0.0028661876 0.02390728
0000b0 db 4b e3 3c 33 48 24 3d 8a 5e 87 3d 68 25 12 bd
       0.027746132 0.040107917 0.06609829 -0.035680205
0000c0 c7 06 28 bd 30 a6 e7 3c d3 b5 83 3d 38 9f ed bc
       -0.04102209 0.028277487 0.064311646 -0.029006585
0000d0 fb 86 05 3d 43 83 9e bd 79 5d 73 bd 7c 0c 27 3d
       0.03259943 -0.0773988 -0.059415314 0.04078339
0000e0 c3 64 8f 3d 3a 9d 8f bd cf 29 83 bd 9d ff 35 bc
       0.07001641 -0.070124105 -0.06404459 -0.011108306
0000f0 7f a0 8e 3d 48 25 9a bd 60 4f 32 bd 9d 76 50 3d
       0.06964206 -0.07526642 -0.04353273 0.05089437

bn2.weight f4 [64]
000000 45 02 8c 3f 5b 65 8d 3f 69 22 93 3f 08 8e 88 3f
       1.0938193 1.1046556 1.1494876 1.0668344
000010 5d ff 8a 3f b1 c8 8c 3f c9 8f 93 3f 0d 9f 90 3f
       1.0859181 1.0998746 1.1528255 1.1298538
000020 27 28 90 3f f7 a5 84 3f d8 de 8f 3f 6c 4a 8a 3f
       1.1262254 1.0363148 1.1239882 1.0803962
000030 4e 5b 90 3f 89 c2 93 3f 58 90 90 3f 5f ed 8f 3f
       1.1277864 1.1543742 1.129405 1.1244315
000040 3d 03 8f 3f 39 63 8a 3f 5e 6d 8b 3f 8c 2e 96 3f
       1.1172863 1.081153 1.0892751 1.1732955
000050 b9 f3 7d 3f 62 b2 91 3f a9 41 95 3f b4 60 8b 3f
       0.99200016 1.1382563 1.1660663 1.0888886
000060 5e da 88 3f 02 c8 8b 3f d3 55 94 3f a2 5e 90 3f
       1.069164 1.0920413 1.1588691 1.127888
000070 77 74 90 3f df d6 85 3f 04 1c 8b 3f a4 dd 8b 3f
       1.1285542 1.0456198 1.0867925 1.0927014
000080 16 d0 88 3f 71 6e 93 3f 94 51 89 3f 2e 51 8e 3f
       1.0688503 1.1518079 1.0728021 1.1118524
000090 92 f6 87 3f 8b 7f 8d 3f 6a 2e 8a 3f 9b c7 90 3f
       1.0622122 1.1054548 1.0795414 1.1310915
0000a0 61 c2 8f 3f 8b 6b 8f 3f ac dc 88 3f 38 f0 93 3f
       1.1231195 1.1204695 1.0692344 1.1557684
0000b0 81 15 90 3f a8 1e 8c 3f 2d 47 85 3f 52 03 8b 3f
       1.1256562 1.0946856 1.0412346 1.0860388
0000c0 91 91 87 3f 4f 40 8d 3f d8 5e 8b 3f c2 fd 93 3f
       1.0591298 1.103525 1.0888319 1.1561816
0000d0 20 c9 92 3f 32 dd 8a 3f c3 3c 8e 3f 12 c2 8f 3f
       1.1467628 1.0848753 1.1112293 1.12311
0000e0 b2 b6 91 3f c2 2a 8a 3f 64 86 93 3f 7e 45 8b 3f
       1.1383879 1.0794299 1.1525388 1.0880582
0000f0 fd 0c 88 3f c8 c8 8a 3f 5a 65 92 3f 8e cf 73 3f
       1.0628964 1.0842524 1.143718 0.9523858

bn2.bias f4 [64]
000000 66 f9 90 3d 2c eb 98 3d 0f ca f7 3d af bb a5 3d
       0.07078819 0.074667305 0.120990865 0.080924384
000010 b0 ea 95 3d 8d 62 b1 3d c3 ad 05 3e 7a f5 d0 3d
       0.07320154 0.08661375 0.13054566 0.10203071
000020 f7 ee e1 3d 31 c1 2f 3d dc d0 e3 3d d3 cc 7f 3d
       0.11031907 0.04290885 0.11123821 0.062451195
000030 34 39 dc 3d 65 33 14 3e 2e a8 fd 3d cd a7 ef 3d
       0.10753098 0.1447273 0.12385593 0.11701927
000040 1e ed d3 3d 2d 79 70 3d 9e cf 8a 3d a0 0a 24 3e
       0.10347961 0.058709312 0.06777881 0.16019678
000050 66 54 4d bc 14 9d 0d 3e fc a6 18 3e b7 c9 79 3d
       -0.012532329 0.13829452 0.1490745 0.060983386
000060 f9 8b c1 3d 39 37 87 3d df e7 0e 3e 7f 69 ca 3d
       0.09450526 0.0660233 0.1395564 0.09883403
000070 4d 03 fa 3d 02 8f 15 3d 5b 5f 95 3d 79 99 94 3d
       0.12207661 0.036513336 0.07293578 0.07255835
000080 a2 e1 2d 3d 47 81 07 3e d8 b6 4e 3d 83 cf bb 3d
       0.04245151 0.13232909 0.050467342 0.09170439
000090 ac df 77 3d 59 fb 9f 3d db 6c 9c 3d b0 c7 f9 3d
       0.060516044 0.07811613 0.0763795 0.121962905
0000a0 f8 d4 c4 3d eb fd cb 3d 80 c6 82 3d 79 27 ec 3d
       0.09610933 0.099605404 0.06385517 0.11530966
0000b0 7b a4 f3 3d 0f 27 83 3d d5 74 94 3c fd 68 a0 3d
       0.118966065 0.06403934 0.018122116 0.07832525
0000c0 4a 0f 6a 3d bb 12 e0 3d 66 ba 97 3d e7 e1 02 3e
       0.057143487 0.109410726 0.074085996 0.12781487
0000d0 c3 99 fa 3d 5a 9c 96 3d 67 a4 b1 3d 6d 11 df 3d
       0.12236359 0.073540404 0.086739354 0.108919956
0000e0 29 cd f0 3d c3 a3 a7 3d 21 18 00 3e 2d 95 86 3d
       0.11757881 0.08185532 0.12509204 0.06571422
0000f0 c6 3d 7b 3d e8 b8 88 3d aa a4 fc 3d 3a 70 4f bd
       0.06133821 0.06675893 0.12336095 -0.050644137

bn2.running_mean f4 [64]
000000 07 7a 21 be 34 0c 72 be d0 5a 54 bd eb d0 64 be
       -0.15769206 -0.23637468 -0.051844418 -0.22345321
000010 70 f9 85 be 86 5c 62 be 92 8a 8d 3e b8 bb c4 3a
       -0.26166868 -0.22105607 0.27644783 0.0015009558
000020 97 d0 0f bd 3a c4 ef 3e 96 ab e7 3d 50 58 e2 3e
       -0.035111036 0.46829396 0.11312024 0.44208002
000030 d4 a5 da 3c 7c 80 82 3e 89 99 81 be 81 63 ae 3e
       0.026690401 0.2548865 -0.2531245 0.3406029
000040 fd 91 c3 bd 14 35 15 3d 16 e7 ed 3d 74 4f 3b 3e
       -0.095493294 0.036427572 0.11616342 0.18292028
000050 df 96 c0 3d 1f 3b b1 3e 36 b1 39 3e 68 4f 01 3c
       0.094037764 0.34615418 0.18134007 0.007892467
000060 0f 87 7a be 64 a3 36 3e 69 49 35 bc eb 35 67 be
       -0.24465583 0.17835766 -0.011064866 -0.22579162
000070 09 35 41 bc d1 10 8e be 8d d6 fe 3d 21 4f 7c be
       -0.01179243 -0.27747205 0.12443266 -0.2463956
000080 86 4d 3e 3e 5c 47 c4 bc 16 be a4 be ad 90 bf 3d
       0.1858426 -0.023959808 -0.32176274 0.093537666
000090 79 2d b0 3e 3f 8f bf 3d 2d d7 cc be ec 75 36 3d
       0.34409693 0.09353494 -0.40007916 0.044546053
0000a0 ef c1 aa be 08 5e 65 be 14 f1 1a 3e d6 d3 95 3c
       -0.33351085 -0.22399151 0.15131027 0.018289488
0000b0 6f 0c 5b 3e 69 31 0e 3d b8 de b8 be e3 9f 95 bd
       0.21391462 0.03471509 -0.3610742 -0.073058866
0000c0 8c 48 6e 3e 5f 57 8d 3e 22 b2 2c 3d b6 ce 88 bd
       0.23269862 0.2760572 0.04216207 -0.06680052
0000d0 ce 08 db 3e 96 0a 72 be b1 6e f0 be 58 6e e0 be
       0.42780155 -0.2363685 -0.4695945 -0.43834186
0000e0 1e 6a 15 be f1 df 8a be 5a 50 d5 be 7d a0 05 3d
       -0.14591262 -0.2712398 -0.41662866 0.032623757
0000f0 c7 64 9b bd 8b d9 5d be 23 b5 8e 3d e6 dc 43 3e
       -0.07587581 -0.21665017 0.06968143 0.19127235

bn2.running_var f4 [64]
000000 62 af 42 3f 2a 90 26 3f f7 9c 2e 3f 5c 22 23 3f
       0.7604886 0.65063727 0.6820826 0.63724303
000010 2a 42 4e 3f ba 6e 54 3f 96 2e 9e 3f 24 26 81 3f
       0.8056971 0.82981455 1.2357967 1.0089765
000020 84 f3 07 3f 16 e8 1e 3f 4b d6 f5 3e 98 70 00 3f
       0.5310595 0.62072885 0.48015055 0.50171804
000030 de f7 2e 3f 3f f4 be 3f d3 e9 68 3f 43 6c 52 3f
       0.68346965 1.4918288 0.9098179 0.82196444
000040 cc b3 9e 3f f6 3c 6c 3f 6d 6c 0e 3f 87 79 bc 3f
       1.239862 0.9228052 0.55634195 1.4724587
000050 db 7d bd 3e e6 c6 82 3f 21 99 77 3f b6 67 17 3f
       0.37010083 1.0216949 0.9671803 0.59142625
000060 56 64 09 3f a3 0d 45 3f 2e fc 8b 3f 94 74 78 3f
       0.53668725 0.76973933 1.0936334 0.97052884
000070 76 9c 35 3f 33 12 f0 3e e4 67 87 3f 50 d4 01 3f
       0.70941865 0.46888885 1.057858 0.5071459
000080 12 d3 81 3f af 34 95 3f 82 c9 3b 3f 73 90 37 3f
       1.0142539 1.1656703 0.7335435 0.71704787
000090 06 d0 c1 3e ce d4 36 3f a3 89 40 3f 22 56 85 3f
       0.37854022 0.71418464 0.75210017 1.0416911
0000a0 fb d9 75 3f f6 ec 72 3f 06 f9 44 3f bb cf 6c 3f
       0.96035737 0.94892824 0.7694248 0.9250447
0000b0 ff 72 5b 3f 1b 99 17 3f e6 da 13 3f c5 b9 49 3f
       0.85722345 0.59217995 0.5775589 0.78799087
0000c0 06 d8 02 3f d6 f4 26 3f be a6 8d 3f 40 34 8a 3f
       0.51110876 0.6521734 1.1066511 1.0797195
0000d0 62 72 89 3f e9 68 8d 3f 0b 8e 27 3f 7c 86 89 3f
       1.0738032 1.1047641 0.65451115 1.0744166
0000e0 f7 b4 56 3f 0d be f2 3e ca a4 82 3f 2b 6d 03 3f
       0.8386988 0.47410622 1.020654 0.5133845
0000f0 23 fd 21 3f f9 8b 29 3f 1f 10 a1 3f 0e 9e bd 3e
       0.6327688 0.66229206 1.2583045 0.3703465

layer3.weight f4 [3, 64]
000000 f3 d5 91 bd a3 77 30 bd 53 6f 10 be 42 dd ed bd
       -0.07120886 -0.043082844 -0.14104967 -0.11614467
000010 f4 7d a7 bd 95 b2 e2 bc d3 f2 82 3e f5 49 72 3c
       -0.081783205 -0.027673045 0.25575885 0.014788141
000020 7d 84 eb 3b 92 b0 e1 3d 98 fe 14 3e 46 57 8e 3d
       0.0071874247 0.11020006 0.14550245 0.0695024
000030 64 0f 2f be d0 ec eb 3d 56 c2 16 be d2 23 be 3d
       -0.17095715 0.11519778 -0.14722571 0.09284176
000040 2b ac 1b be 8b 8f bf 3b e2 8f a4 bd e5 0a 38 3e
       -0.15202396 0.005845969 -0.08035256 0.17972906
000050 88 21 3d 3d f0 db 62 3e b2 ea 82 3e 60 eb a0 bd
       0.046174556 0.22154212 0.25569683 -0.07857394
000060 bd 4f 96 bd bb 0d 9d 3c 3d 0f 1c 3e 85 2d c3 bd
       -0.073394276 0.019171586 0.15240188 -0.095301665
000070 86 9b 0a be ca c9 3f bd 4a c4 66 bc 75 cd 3c be
       -0.1353589 -0.0468233 -0.014084885 -0.1843775
000080 71 62 5d 3d f9 27 7f 3e e3 77 b5 bc 4f f4 19 be
       0.05404896 0.24917592 -0.022151893 -0.15034603
000090 a6 b6 ce bc 8b 43 b8 3d aa 7c 88 bd ba be 31 3e
       -0.025233578 0.08997258 -0.06664403 0.17357913
0000a0 67 d1 b3 bd ad 7e 1c be ac c3 b3 ba 43 57 e9 bc
       -0.08780175 -0.15282698 -0.0013714931 -0.028483992
0000b0 46 e8 2e 3e d6 65 c9 3d d0 ee 65 bd 40 1e b4 bd
       0.17080793 0.09833877 -0.056135952 -0.08794832
0000c0 31 a2 45 bd d4 fa 02 3e a3 e1 b5 3d 74 83 5a 3e
       -0.04825038 0.12790996 0.088809274 0.21339208
0000d0 ba 0f 37 3e 51 fa 87 bc 5a be 06 be 82 aa a5 bd
       0.17877093 -0.016598852 -0.13158551 -0.080891624
0000e0 29 f1 12 bd 42 19 b3 bd 69 0a b3 bd 4e ee ec ba
       -0.03587452 -0.08745052 -0.0874222 -0.0018076391
0000f0 28 b7 2a be fe c5 a3 bc 98 59 2d 3e 04 07 85 bd
       -0.16671431 -0.019991871 0.16928709 -0.06495479
000100 6d 2a c6 3d e7 7e 79 3c 02 c0 aa bc 72 00 9d 3d
       0.09676061 0.01522801 -0.02084351 0.076661006
000110 f0 01 81 3d af 33 fd 3d 8a 18 58 3c fb a5 cb bd
       0.06299198 0.123633735 0.013189444 -0.09943768
000120 6f 67 a2 3d 64 a3 b3 3d f8 cf 17 be a2 19 c0 bd
       0.07929885 0.08771399 -0.14825428 -0.09379889
000130 9c 96 2d be b1 8a 0d be c9 0e e6 3d 45 28 32 3d
       -0.16951984 -0.13822438 0.11233289 0.043495435
000140 69 47 64 3e 6b 9e 4c bc d8 24 d2 bd 57 0d b6 bd
       0.22292866 -0.012488942 -0.10260934 -0.08889263
000150 2c 7f 84 3c 16 67 09 be 9b 64 20 bd ff 47 c4 bc
       0.016173922 -0.1341823 -0.039158445 -0.023960112
000160 fc fb 75 3c 99 b9 fe bb d9 a8 17 be 36 d0 56 3e
       0.015013691 -0.00777359 -0.14810504 0.20977864
000170 67 9c 3f be 87 18 ee bd 3b 96 e6 bc 9b cb 97 bd
       -0.18712007 -0.11625772 -0.028147807 -0.074118815
000180 0b 51 07 bd bd ac f6 bd 80 ac ac 3d 16 f8 c9 3a
       -0.033036273 -0.12044666 0.08431339 0.0015409018
000190 a6 ee d8 bd c0 50 d7 3c 44 c9 c9 3d 22 2a 4b be
       -0.105923936 0.026283622 0.098528415 -0.19840291
0001a0 6b ee 1f 3e 12 4a 15 3e c9 33 a9 3c 3a 7c 71 3e
       0.15618293 0.14579037 0.020654576 0.23582545
0001b0 70 d6 28 be 08 bb 08 bd e2 8f 9a 3c 15 81 e6 3b
       -0.16488051 -0.033381492 0.018867437 0.0070344307
0001c0 fd c7 01 3c b7 12 06 be d3 0d c4 bd c9 05 ff 3b
       0.007921216 -0.13093077 -0.09572949 0.007782672
0001d0 98 15 28 be 0f 22 e4 3c cd 37 ad 3c d3 ae 21 3e
       -0.16414487 0.027848272 0.021144772 0.15789346
0001e0 bd 44 9a 3c dc 6d 7e 3b 10 a9 21 3e c1 ef a6 bb
       0.018831605 0.0038822806 0.15787148 -0.005094499
0001f0 5c 66 ed 3d b4 c0 c3 bc 13 4e 66 be 40 1e 88 bd
       0.11591789 -0.023895599 -0.2249072 -0.06646395
000200 13 0a cc bd dd 40 1a bd e5 1f 30 3e f0 bb 2f 3e
       -0.09962859 -0.037659515 0.17199667 0.17161536
000210 2e 3e 6f bd 69 b9 32 bd 52 df cf bd 02 49 10 be
       -0.05840891 -0.043633852 -0.10150017 -0.1409035
000220 0f 15 dc 3d d5 11 19 bd e9 88 36 3e 98 fe 56 3d
       0.10746204 -0.03737052 0.17825665 0.052488893
000230 95 d3 b2 3d af f4 98 bd e0 c3 7a bd d9 1d 64 3d
       0.08731762 -0.07468545 -0.061221957 0.055692527
000240 dd f5 3b be c7 80 97 bc e7 a5 3e 3c cf d5 55 bc
       -0.18355508 -0.018494023 0.011636234 -0.013051464
000250 7c 10 4c 3d 92 cb a6 3c a4 17 8b bd cc 09 3c 3c
       0.04982041 0.020360742 -0.067916185 0.011476945
000260 d2 03 56 bc 0e 00 2a bc 09 b9 c2 bd 33 de 57 bd
       -0.013062434 -0.01037599 -0.09507949 -0.05270214
000270 c3 d1 1b 3e 3d a1 9a 3d a3 75 3b bd f0 cd 92 3d
       0.15216736 0.07550285 -0.045766484 0.07168186
000280 4b 55 96 bb bf 1c 1b be 79 92 fc 3c c3 d1 5b 3e
       -0.0045878044 -0.15147685 0.030831562 0.21466736
000290 b0 02 08 bc 62 3b b3 bd 71 d2 cb 3c 5b 0c db bd
       -0.008301422 -0.08751561 0.02488062 -0.10695716
0002a0 6e 3d 26 be 9c 62 13 be f9 31 10 3d 6e f7 11 bd
       -0.16234371 -0.14393085 0.035203908 -0.035636358
0002b0 c0 53 20 3d ba 61 9f 39 00 e7 1e bd e6 2b d3 3d
       0.03914237 0.00030399655 -0.038794518 0.10311107
0002c0 99 49 94 3b 29 e5 de 3d ad a2 d1 3d aa f1 a5 bd
       0.004525375 0.108835526 0.10236106 -0.081027344
0002d0 fb bb 0d be 24 94 0e bd 72 43 ab 3d f8 f9 22 3b
       -0.1384124 -0.034809247 0.083624735 0.0024868231
0002e0 2f 75 35 3e 8f 5f 7c bc 20 40 2e bc ff bd b5 3c
       0.17720483 -0.015403642 -0.010635406 0.022185324
0002f0 ba 52 00 3e d2 be 92 3d a6 e2 54 be ae 4e 1a bd
       0.12531558 0.07165302 -0.20789585 -0.03767269

layer3.bias f4 [3]
000000 df 52 8c bd 3e 75 50 bd 7e 82 c9 bd
       -0.06851744 -0.05089306 -0.098393425
